training/prices/model.pt (torch, 9116 bytes, 9 tensors)

details_processor.weight f4 [10, 2]
00000000: 928b ba3e c6cb 9fbe e85e 0cbe 02ee a93e
00000010: 146b 2abf ee1e d93e 08f6 14be 5a2f b83e
00000020: 7051 c93d 7051 b1bd acd4 483e 50e1 0e3d
00000030: 0a3a 843e 3b16 8dbe 902a 53bd a05f 82bd
00000040: b8e6 d13d 0020 39bb b73d 1e3f 6453 613e
0.3643461 -0.31210154 -0.13708079 0.33189398 -0.6656964 0.4240641 -0.14546978 0.35973626
0.09829986 -0.08658111 0.19612378 0.034882843 0.2582553 -0.27556023 -0.051554263 -0.06365895
0.10249084 -0.0028247833 0.6181292 0.22004467

details_processor.bias f4 [10]
00000000: 51d3 86be 49a8 dabe c0bb f2bd 7929 9cbe
00000010: 8e07 68be 10ae 0a3d 42d2 d73e 02c8 c43e
00000020: a3f4 30bf 6a6f e03e
-0.26333097 -0.42706516 -0.11852217 -0.3050039 -0.22659132 0.033857405 0.421526 0.38433844
-0.69123286 0.43835002

prices_processor.weight f4 [10, 50]
00000000: 28d3 213d 935d 093e 7a2c bf3d 64f2 03be
00000010: 18b1 09be c4b2 8bbd 0e54 fe3d 60f9 c0bc
00000020: 8ce6 773d 4698 86bd 7518 0e3e b615 75bd
00000030: 9033 d93d 8080 db3a 2895 98bd e6df 943d
00000040: f0bd 99bd 185d 2a3d 1c44 27bd 3007 7ebc
00000050: 5039 0bbe 3b17 8abd e229 9d3d 30ce 0cbd
00000060: 4f3e 103e 322a e83d 40fc d8bb e252 c1bd
00000070: d25f b03d 2cc7 333d 2239 bbbd d220 bc3d
00000080: e2d5 af3d a56f 003e fc5a a2bd 30b3 bebc
00000090: c08a 33bb 0836 a93c 64ce dbbd 5287 cdbd
000000a0: 808f 9d3d 0ed5 07bd 1e7a 8d3d 4018 043c
000000b0: 9832 3e3d 10bf fe3c 889e 523d bc92 8f3d
000000c0: 881d 06be 42c9 913d 70a5 cbbd 7687 dabd
000000d0: f0e8 0c3c b86b c5bc 721b aa3d 51bc a7bd
000000e0: 04bd 00be ccc8 d23d bcc9 abbc b0e7 a23d
000000f0: 4839 3a3d e62f d9bd d8be e83c 0023 0b3d
00000100: c6ec c1bd ff6b 89bd a483 453d 8884 cf3c
00000110: f266 76bd 0e5a 2fbd 4da2 043e 005a d6bc
00000120: a04a a33d 80d2 7a3d 3238 bbbd 8b4f f6bd
00000130: b901 0b3e 40fa f13b a687 c63d 2015 f03c
00000140: c44d 3a3d a457 d83d ef50 093e 9031 c0bd
00000150: 58d9 903c a423 d83d 9ed1 d13d 0eee b33d
00000160: 849c d1bd 8190 d0bd 1c29 afbd 208b 913c
00000170: 1f55 103e ebf3 b6bd bc56 9a3d ab4e a0bd
00000180: 6528 08be 783b f6bc 7ee0 a63d 6b71 063e
00000190: 3fdf b3bd a069 fb3c 3ae9 f93d ccec bf3d
000001a0: 3481 b43d 3ad2 cd3d 4232 b73d 0c9f 153d
000001b0: 340e c6bd 5638 f3bd 02b7 84bd c4e7 86bc
000001c0: aa87 b1bd d4ec 533d 4446 333d 542a 03bd
000001d0: 4ca2 5e3d 6835 3b3d bcd4 b03d d60c c33d
000001e0: 2a2b 44bd 097d 0d3e 30ef 85bc 8035 9fbb
000001f0: 3eb0 08be 4269 babd 1234 a9bd 7cc3 77bd
00000200: 36eb cd3d b44a 3dbd 8e6f d8bd f8de 5e3d
00000210: 4876 393d 5c97 bb3d 3ee0 95bd 702f fb3c
00000220: 72e1 52bd 4025 02bd eecf e6bd a200 84bd
00000230: 4867 31bd 7cb6 773d 68a6 d33c 5416 0f3d
00000240: 838a 103e 2324 0d3e be8a c53d e090 933b
00000250: 3c5d c8bd 7259 e23d 2ada 10bd 9052 3bbc
00000260: 4a84 f9bd 74d7 e4bc f6ce babd 6112 053e
00000270: 5d64 fabd 28c3 e1bd 405b 9dbb a19b 9cbd
00000280: 4444 4f3d 06f9 5ebd 3b09 88bd 703b 033c
00000290: caa9 d13d b8bb cbbd 3403 883d 2812 ba3d
000002a0: 79a8 0d3e beb8 cabd 984a 0c3d 3129 d6bd
000002b0: c245 f73d 08b3 60bd c275 ae3d c0f6 893b
000002c0: 3075 34bc 20dd 93bb 50f1 c43c e887 883d
000002d0: d0cd b93c e8b4 303d dd43 02be ca01 d33d
000002e0: ce84 fc3d 1e69 ef3d 0c1a d63d bd01 d1bd
000002f0: 7ebb 56bd fe5f ff3d 9299 dcbd 3161 033e
00000300: 29cb e3bd bd04 ccbd 1e98 8d3d bf18 d0bd
00000310: 96b5 04bd 44b4 d23d d669 e53d c7f5 083e
00000320: b015 ebbc 681e e1bd 3f96 0e3e c0cb f6bc
00000330: 2654 6ebd 7835 0d3d c88b cabd 625e be3d
00000340: 6c85 b53d 15d1 e5bd 16e5 edbd 10f7 4abc
00000350: 044e 733d a036 86bb 88dd 92bd c0e4 533b
00000360: e21d 08be 2ab3 ccbd e2cd c0bd 1685 ee3d
00000370: b64f ff3d 88c1 44bd 40d7 cf3b 442b 813d
00000380: b0cf 8a3c 9008 91bd 920a a73d ca0b b23d
00000390: 2049 06bc 049e 8ebc b199 033e be2c fd3d
000003a0: e636 a4bd 87af 0d3e f459 0f3d f863 c0bd
000003b0: 308c 9e3d 283b d8bd 95cc 053e 9c32 babd
000003c0: dcd4 233d a862 303d 34c8 093d f239 f03d
000003d0: 9c98 70bd 128c 74bd 64fc fabd a02e bebb
000003e0: 4234 89bd 40af b93b e07e edbc 0832 403d
000003f0: 8a8d fa3d 74ed 2a3d 829a 3abd ed1e 8ebd
0.039508015 0.13414602 0.09334655 -0.12885433 -0.13446462 -0.06821206 0.12418376 -0.023556411
0.0605226 -0.065720126 0.13876517 -0.05983516 0.10605538 0.001674667 -0.07450324 0.07269268
-0.07506931 0.041592687 -0.04083644 -0.015504643 -0.13596082 -0.06742712 0.07674004 -0.034376323
0.14086269 0.11336173 -0.0066218674 -0.09439637 0.08612026 0.043891117 -0.091417566 0.091859475
0.08585717 0.12542589 -0.0792751 -0.023278803 -0.0027395934 0.020655647 -0.10732725 -0.10035576
0.07693386 -0.03316217 0.06908058 0.008062422 0.04643497 0.031096965 0.05142072 0.07010409
-0.13097203 0.07118465 -0.09943664 -0.106703684 0.0086004585 -0.024099216 0.08306016 -0.081902154
-0.12572104 0.10292205 -0.020970218 0.07954347 0.045464784 -0.10604839 0.028411314 0.033968925
-0.09468989 -0.06710052 0.048221245 0.02533175 -0.06015677 -0.042810492 0.12952538 -0.026165962
0.07973218 0.061235905 -0.09141578 -0.1202689 0.13574876 0.0073845685 0.09693842 0.029306948
0.04548432 0.10563591 0.1340978 -0.09384453 0.017681763 0.10553673 0.102450594 0.0878564
-0.10234931 -0.10183812 -0.08552763 0.017766535 0.14094971 -0.089332424 0.075360745 -0.07827505
-0.1329666 -0.030057654 0.08148287 0.13129203 -0.08782815 0.030690014 0.122026876 0.09371337
0.08813706 0.10049863 0.08945133 0.036528632 -0.09670678 -0.118759796 -0.064802185 -0.016467936
-0.08668454 0.05173953 0.043768182 -0.03202279 0.054353997 0.04570523 0.08634326 0.09523933
-0.047892727 0.13817228 -0.016349405 -0.0048586726 -0.13348481 -0.091021076 -0.08261885 -0.060489163
0.100546286 -0.04621382 -0.10568152 0.05441186 0.045278817 0.09159729 -0.073181614 0.030662268
-0.051484533 -0.031773806 -0.11270128 -0.06445433 -0.043311387 0.060476765 0.025836185 0.034933403
0.14115338 0.13783316 0.096456036 0.0045033544 -0.09783408 0.110522166 -0.035364307 -0.011433259
-0.12183435 -0.027934767 -0.09121506 0.12995292 -0.12226174 -0.11023551 -0.0048021376 -0.07646871
0.050602213 -0.054436706 -0.066423856 0.0080097765 0.10237463 -0.09947914 0.06641236 0.09085494
0.13833798 -0.09898518 0.034250826 -0.104570754 0.12073852 -0.054858238 0.08518554 0.004210323
-0.011014268 -0.004512444 0.024040848 0.06666547 0.022681147 0.043141276 -0.127212 0.103030756
0.12330018 0.116899714 0.10454187 -0.1020541 -0.0524249 0.12469481 -0.10771479 0.12830044
-0.11122734 -0.09961841 0.0691378 -0.1016097 -0.032399736 0.10288289 0.11201827 0.13375007
-0.028696865 -0.10992128 0.13924502 -0.030126452 -0.05818572 0.03447482 -0.098899424 0.09295346
0.08863339 -0.1122152 -0.1161596 -0.012388006 0.059400573 -0.0040958673 -0.0717116 0.003233239
-0.1329265 -0.0999511 -0.09414269 0.11646478 0.124663755 -0.04803613 0.0063427985 0.063070804
0.016944736 -0.07081711 0.08156313 0.08693655 -0.008196145 -0.017409332 0.12851597 0.123620495
-0.080182835 0.1383649 0.034997895 -0.093940675 0.077415824 -0.10558158 0.13066323 -0.09091684
0.03999792 0.043062836 0.033638194 0.11729802 -0.05873929 -0.059703894 -0.12255171 -0.005803898
-0.066994205 0.0056666434 -0.028991163 0.046922714 0.12234028 0.04173036 -0.045557506 -0.069394924

prices_processor.bias f4 [10]
00000000: d062 f63c c49c 1d3d 4e8e 803d 2425 2c3d
00000010: 38ba b0bc b134 e0bd aa61 b83d 80e5 9eba
00000020: 2c7c c0bd 5ac6 f93d
0.030076414 0.03847958 0.062771425 0.042027608 -0.021573171 -0.1094755 0.09003003 -0.001212284
-0.09398684 0.12196036

conditions_processor.weight f4 [10, 50]
00000000: ac7b a13d 26a1 e3bd 8aa5 90bd 1820 45bd
00000010: f832 a7bd fc40 873d fe9e cebd 4796 063e
00000020: ca6d 6fbd 48f6 aa3d 40d0 9d3b 14c1 7ebd
00000030: 1a69 c13d 87ff dcbd 0f3d 99bd 70dc 8a3c
00000040: c2c1 e53d 1830 78bd 7e5d b0bd ace7 b8bd
00000050: 2062 7fbd e218 48bd 22ec 06bd 58c4 a4bd
00000060: a80b 353d 008b 963a 543c bdbd e265 a5bd
00000070: e051 f53c 4066 04bb 52fc cc3d aca0 afbc
00000080: 6ba1 eabd f436 d6bd 2007 2abd 104b 00bd
00000090: b836 843c 4ee9 01bd dcbb 553d 32a7 40bd
000000a0: 6693 d43d 980c 053d f815 32bd 470f 013e
000000b0: d0e1 133d 8ed4 c4bd 3731 a1bd 5a9a b53d
000000c0: d047 843d 6224 e23d 50fc 31bc e892 ca3d
000000d0: 8eff 8f3d 1024 333d 5c11 06bd b799 0b3e
000000e0: 7871 ea3c 2075 15bd 80c5 03bb 535c 0e3e
000000f0: e887 c23d 20b5 2bbc dbf8 0d3e dc5f 7e3d
00000100: 5734 9abd c5ca 03be d450 a83d 0dd0 073e
00000110: 08bf a8bd 84ea 6d3d 8047 c53b 70b6 f7bc
00000120: e281 1dbd cc26 213d 6067 ff3c 889e c33d
00000130: 880d 543d 76cc 833d fe7f ff3d a45f 343d
00000140: 60f9 ab3c 80e3 52bd 8a69 d43d a817 ab3c
00000150: deaf ba3d 2fd7 0b3e bc8d 01bd eeed cb3d
00000160: 0c46 ebbc 8faf 023e 96f7 e33d cca0 4fbd
00000170: 6032 a63b def7 7cbd e647 6abd 3890 eabc
00000180: 00c0 7cba 3ced 49bd a0b4 08be 3e2d afbd
00000190: 4000 46bc 00eb 38bd fa1f d73d b26d eb3d
000001a0: 5683 b83d 702f 803d dd9b e5bd 09d1 083e
000001b0: c839 ffbd b26f 3ebd c4d8 cbbd 784d 503d
000001c0: a401 f1bd 54c9 8ebd 16fa b7bd 3308 b2bd
000001d0: 8234 87bd 355b 0e3e 9040 3dbc 5493 303d
000001e0: 8ac1 0fbe f3c1 003e 9c46 fcbc 4ce7 04be
000001f0: 169a c73d fca0 1cbd f582 033e 06ba c4bd
00000200: 8f73 06be 1a96 d9bd 78ec 7a3d c0ec 81bc
00000210: ec28 06be 58cf d63c 60b1 13bc 0c45 513d
00000220: 5854 93bd a4c3 cebd 5e68 c53d e15e 8bbd
00000230: 8cbc cb3d 9ed5 ea3d 668c cabd 1288 85bd
00000240: c076 8b3c a68a 08be 54e5 313d 3e5b 71bd
00000250: 796a 80bd 70e7 dfbd a67e 873d 0591 b8bd
00000260: a880 e7bd ec54 18bd f43c a1bd 10ca 0cbe
00000270: 7073 693d aa63 5cbd 62e0 ca3d 4ee0 cb3d
00000280: d7b7 b8bd ced8 a8bd f29c 4dbd 1ca7 a93d
00000290: 0085 9fbb 32f0 4ebd ba6b b33d d155 093e
000002a0: 9c1f d63d 7e7b ddbd ec9f f0bc 0c38 debc
000002b0: fe2b f73d afcc 95bd 0bff a5bd 0002 113b
000002c0: d28f 06bd c042 5b3d 18d2 8c3c d2ec acbd
000002d0: d49a d23d 004a b43d 70b3 fd3c 7513 03be
000002e0: 681a 883d ec72 c03d 6044 213d e8e8 5fbd
000002f0: a065 1b3c 6887 5ebd 4f56 083e 0dd6 0b3e
00000300: 0002 87bc ebdc c2bd 4a60 aa3d 8ed2 933d
00000310: c886 993d 02ef d9bd 786b 443d 4033 77bd
00000320: 6792 febd 1b3e cabd 8c8d 753d 00dd 583d
00000330: 1133 febd 323e a43d 44ed dd3d f4dd db3d
00000340: ba89 a33d 28dd b5bc 6012 c23d 06bf e23d
00000350: b0fa 963d 3151 d0bd a22a 4abd 7273 e53d
00000360: cace dc3d b0ce b83d c41b 72bd 9071 e5bc
00000370: 20c7 d7bd 9c0f a5bd 9c54 de3d 14b9 edbd
00000380: 7626 0fbd 20eb f53c 3ac8 adbd bc06 073d
00000390: e43c babc 18a9 673d 0e42 debd 88e1 9f3c
000003a0: 2d08 04be 52af b33d 5fab 0c3e 60c0 4ebd
000003b0: a84f ab3c 8b38 95bd ca45 b9bd 70af 92bd
000003c0: b3fa 89bd c8e9 db3c 58cc 84bc 7076 223c
000003d0: 05f4 ddbd cff6 b5bd 4dbd fabd a22b d0bd
000003e0: b68a f23d c835 573d 411c 0abe cc5c c1bc
000003f0: e0f4 393c 5eba 9a3d 574f 063e b0e0 0b3d
0.07884917 -0.11114721 -0.07062824 -0.04812631 -0.081640184 0.06604192 -0.10088919 0.13143264
-0.058454312 0.08347756 0.004816085 -0.062195852 0.09443875 -0.107909255 -0.07482349 0.016950816
0.11218597 -0.06059274 -0.08611582 -0.09028563 -0.06234944 -0.048851855 -0.032940038 -0.08045262
0.04420057 0.0011485517 -0.09240022 -0.08076073 0.029946268 -0.0020202547 0.10009064 -0.021438919
-0.11456569 -0.104597 -0.0415107 -0.031321585 0.016139373 -0.031716637 0.05218111 -0.04703445
0.103796765 0.032482713 -0.043477982 0.12603484 0.036104023 -0.09610854 -0.07870715 0.08867331
0.0645901 0.11042096 -0.010863379 0.098913014 0.07031165 0.043735564 -0.0327314 0.13632856
0.02861856 -0.036488652 -0.0020106733 0.13902406 0.09498578 -0.010480195 0.13864462 0.062103137
-0.07529514 -0.12870319 0.08218542 0.13262959 -0.08239561 0.05808498 0.0060204864 -0.03023836
-0.038453944 0.03934364 0.031177223 0.09551722 0.051770717 0.06435482 0.124755844 0.044036523
0.020992935 -0.051486492 0.103716925 0.020885304 0.09115575 0.13656305 -0.03162931 0.09957491
-0.028719924 0.12762283 0.11131208 -0.050690457 0.005071923 -0.061759822 -0.057197474 -0.028633222
-0.00096416473 -0.04929851 -0.13350153 -0.08553551 -0.012085021 -0.04514599 0.10504146 0.11495532
0.09009425 0.06259048 -0.11211369 0.1336099 -0.12462193 -0.04649324 -0.09953454 0.05085513
-0.11767891 -0.06971994 -0.08983247 -0.0869297 -0.06601812 0.1390198 -0.011551037 0.043109253
-0.14038673 0.12573986 -0.030795388 -0.12978858 0.097461864 -0.038239464 0.12842925 -0.09605794
-0.1313002 -0.10624333 0.06126067 -0.015859962 -0.13101548 0.026221916 -0.009014457 0.05109124
-0.07193822 -0.10095909 0.09639047 -0.06805206 0.09948072 0.114665255 -0.0989006 -0.06520094
0.017024398 -0.1333414 0.043431595 -0.058924906 -0.06270308 -0.10932815 0.06615953 -0.09012035
-0.11303836 -0.037190363 -0.07872954 -0.13748956 0.056994855 -0.053805985 0.09906079 0.09954892
-0.0901944 -0.08244477 -0.050198503 0.08283827 -0.0048681498 -0.050522037 0.087607816 0.13411643
0.10455248 -0.1081457 -0.029373132 -0.027126335 0.12068938 -0.07314431 -0.08105286 0.0022126436
-0.032852 0.053530455 0.017190024 -0.084436074 0.10283437 0.08803177 0.030969352 -0.12800391
0.066456616 0.093969196 0.039371848 -0.054665476 0.0094846785 -0.054328352 0.13314174 0.13655873
-0.016480446 -0.09514793 0.08319147 0.072178945 0.074964106 -0.1064129 0.047954053 -0.06035161
-0.12430268 -0.09875127 0.059949443 0.052945137 -0.12412084 0.08019675 0.108362705 0.107356936
0.07985254 -0.022200182 0.09476161 0.11071591 0.073720336 -0.10171736 -0.049357064 0.1120366
0.107816294 0.090237975 -0.05910851 -0.028008252 -0.10536027 -0.08059618 0.10855982 -0.116075665
-0.03494879 0.030019343 -0.08485456 0.032965407 -0.022734113 0.056557745 -0.10852443 0.019516721
-0.12893744 0.08773674 0.13737248 -0.05047643 0.020912006 -0.07286175 -0.09046514 -0.07162368
-0.0673727 0.026844874 -0.01621072 0.009915933 -0.10837559 -0.08884966 -0.122431375 -0.10164572
0.11842863 0.052541524 -0.1348734 -0.02360382 0.011349887 0.07555078 0.13116203 0.034149826

conditions_processor.bias f4 [10]
00000000: d508 e2bd ac59 da3d f54c c5bd 0a72 fb3d
00000010: a498 cc3d c4f1 da3d 80ca ad3d 6813 063d
00000020: e0db e1bb 00f1 13bb
-0.11036841 0.10661635 -0.09633819 0.122776106 0.099900514 0.106906444 0.084858894 0.03273335
-0.006892666 -0.0022574067

middle_layer.weight f4 [10, 30]
00000000: 7cb6 94bd 69d9 2bbe d467 2a3e 80fc 1a3c
00000010: a0db af3d 0094 db3b 54e7 563d ed60 e6bd
00000020: 4955 11be 9e94 0e3e 1ccb 8d3d b49f b83d
00000030: 7090 39be 503c 4a3c 4562 2ebe 5028 abbc
00000040: 0022 1ebc fb86 03be e620 39be 8080 9d3a
00000050: 1e21 283e 467d 283e 45a5 e3bd 30d8 04bd
00000060: 3757 1cbe 0401 12be 080b 4dbd 0282 353e
00000070: 9418 43bd 2012 2d3c aee1 2f3e 8444 053d
00000080: 2ad1 163e 1076 f83d 864f 2f3e 903e 003d
00000090: 2030 17be d3d4 20be 2531 c1bd 184f 1a3e
000000a0: f002 d73d d0de 5a3d 565f 0ebe a6b1 09be
000000b0: 2487 183e 0041 9bbc 8725 3abe 18e5 b8bc
000000c0: 9488 33bd c07b 343b 407c 9c3d 5ce0 8f3d
000000d0: 020e 0fbe 8024 03bb ed4c b9bd b4ec fc3d
000000e0: 9c27 b93d c03b cd3d 44f8 293e 9caa b73d
000000f0: d6d2 3abe c8b2 3c3d 5649 00be e8ba c73c
00000100: 80c9 ff3a 486d 393e 0e77 ffbd 162c 37be
00000110: dc79 48bd e803 f13c 18f4 083e 8e95 173e
00000120: c0fb 0f3e 6011 6c3d a4b6 55bd 401f 1ebd
00000130: 777b ccbd c43c 123d 4c04 02be a28d 803d
00000140: ec79 f13d 0ca5 1e3e 8146 38be 4864 193e
00000150: 84e3 eabd 303d 74bc d2aa 2a3e f09f ca3d
00000160: 3a36 6dbd 14bb dc3d 19d7 35be 9428 123e
00000170: 487b 353e 00d7 07bc 0827 f63c fc79 2fbd
00000180: bdb4 ecbd 0820 a9bd 80a6 46bc 8df3 18be
00000190: b819 17be a024 a43c 844b f3bd 4e63 cbbd
000001a0: 80f2 ceba 7c0d c5bd 3a0e 2d3e 65fb 86bd
000001b0: 04e8 cfbd b439 47bd 4b88 18be ac9f c03d
000001c0: b8a1 203e a8a3 d7bd e1ff 8abd de7a 2e3e
000001d0: 2c3e 07be 508a 4a3d 4053 18be 3a66 26be
000001e0: 00d6 9039 d567 d5bd 6081 ca3d 604e 67bd
000001f0: 00c8 eb3a 1a36 c3bd 48a7 993d 0e38 2d3e
00000200: 20d7 e0bc 49c8 e6bd b557 36be 2e27 333e
00000210: 5c98 9d3d a46b 9a3d f8a3 fe3c 949f bb3d
00000220: aac7 843d 7892 b63d b4d9 e93d 3815 d43c
00000230: 4408 213e 8881 e83d 6023 b7bb b701 a7bd
00000240: 804b 463c 7c9a 113e 7cdd ec3d ac84 97bd
00000250: d01f 1cbd 4875 943d 08e2 8c3d f206 323e
00000260: 1891 b53d 083f 6e3d 08d6 2c3d 72b3 2fbe
00000270: 78c1 89bd 384b 9e3c ea0e 02be 05ce 23be
00000280: 344f fc3d dc56 7e3d f8dd 16be 208a 313c
00000290: 8c34 dc3d b866 d73d d4ba 2a3e 8dd8 93bd
000002a0: 107e a63d c6a7 17be c87c b8bc 6ace edbd
000002b0: c065 0ebd a8dc d43d 8867 ba3d e4ae c4bd
000002c0: cc6f 39bd 289b 15bd 013f 8ebd afd3 ccbd
000002d0: 0e48 093e be3a 013e 7413 1c3e c351 cdbd
000002e0: c0e7 083e 74c3 62bd e8b1 2fbd f456 49bd
000002f0: a073 11bc 48bc a3bd a88a cc3c 3000 f1bd
00000300: 18c9 993d 19c9 1cbe 428d 87bd 9994 02be
00000310: bc3a fc3d a272 003e 50b2 14be 7708 ccbd
00000320: 9852 273e c0e8 593d babb 003e c154 0fbe
00000330: 70c1 a83d 9802 ee3d ac82 2dbd b0d7 09bc
00000340: 0453 083e 98ea 4b3d 3493 563d 0093 113a
00000350: 741a 9cbd 21dd e4bd 5891 3a3e c04e 6cbc
00000360: 06e9 253e 94f7 183e c985 c3bd a052 4b3c
00000370: b448 3fbd 8041 59bb 406e f63d 34e5 cd3d
00000380: c760 d4bd 0004 b9bd 68d0 04be 98bb 1ebe
00000390: d4dc ef3d 0b0c e7bd 005e 1c3b 000a 82b9
000003a0: 68dd ff3c a003 2fbc 6c09 c23d 1867 cd3c
000003b0: 5210 063e b46c 213d c03c 15bb a0ef d33c
000003c0: c836 f93d 88be e13c d2b4 033e a8d3 8dbc
000003d0: 007e cf3a ec11 1d3e e180 30be 7834 953c
000003e0: 7ac2 2a3e 2ca2 bbbd 2cf1 09bd 4038 34bc
000003f0: 4c5e 763d 6853 8d3d 6869 293d b07f 933d
-0.07261369 -0.16782154 0.1664117 0.009459615 0.08586812 0.0067009926 0.052466705 -0.11248956
-0.1419269 0.1392388 0.06923506 0.09014836 -0.18121505 0.012343481 -0.17029674 -0.020893246
-0.009651661 -0.1284446 -0.18078956 0.0012016445 0.16418883 0.16454038 -0.11115507 -0.032432735
-0.15267645 -0.142582 -0.05005935 0.17725375 -0.04763086 0.010563403 0.17175934 0.032536045
0.14728227 0.12131894 0.1712018 0.031309664 -0.14764452 -0.15706186 -0.09433202 0.15069234
0.10498607 0.053435147 -0.13903555 -0.13446674 0.14895302 -0.018951893 -0.18178378 -0.022570178
-0.043831423 0.002753958 0.07640886 0.07025215 -0.13970187 -0.002001077 -0.090478756 0.12349835
0.09040758 0.10021162 0.16598612 0.08968088 -0.1824449 0.046068937 -0.12527975 0.024381116
0.0019515008 0.18108094 -0.1247388 -0.17887911 -0.04894434 0.029420808 0.13374364 0.14803144
0.14060879 0.057633758 -0.052176133 -0.03860402 -0.099844866 0.035702482 -0.12696952 0.06277014
0.11790833 0.15492648 -0.17995645 0.1497966 -0.114691764 -0.014907166 0.16666725 0.09893787
-0.057913043 0.1077787 -0.17757834 0.14273292 0.1772281 -0.008291006 0.030047908 -0.042840943
-0.115579106 -0.082580626 -0.012124658 -0.14936657 -0.14755905 0.020036995 -0.11879638 -0.0993105
-0.0015788823 -0.096217126 0.16899958 -0.065909185 -0.10151675 -0.048639014 -0.14895742 0.09405455
0.15686691 -0.10529262 -0.06787086 0.17039058 -0.1320731 0.04944831 -0.14875507 -0.16249934
0.00027625263 -0.10420195 0.098879576 -0.05647123 0.0017988682 -0.095318034 0.075026095 0.16915914
-0.02744633 -0.1126867 -0.17806895 0.17495415 0.07695076 0.07540062 0.031084046 0.091612965
0.064833954 0.089146554 0.11418477 0.025889024 0.1572581 0.11352831 -0.005588934 -0.08154624
0.012102962 0.14219087 0.11565682 -0.07398352 -0.038116276 0.07248932 0.068790495 0.17385462
0.08865565 0.05816558 0.042196304 -0.17158297 -0.06726354 0.019322976 -0.12701002 -0.15996559
0.12319794 0.062094554 -0.14733112 0.010836154 0.1075221 0.10517639 0.16672832 -0.07219038
0.08129513 -0.14810094 -0.022520438 -0.11611636 -0.034765005 0.10393649 0.09101778 -0.0960367
-0.045272633 -0.03652492 -0.06945611 -0.10001313 0.13406393 0.12620065 0.15241796 -0.100253604
0.13369656 -0.05536218 -0.042894274 -0.04915519 -0.008877665 -0.07994896 0.02496846 -0.11767614
0.07509059 -0.15311088 -0.0661874 -0.12751998 0.1231589 0.12543729 -0.14521146 -0.09962552
0.16340101 0.053200483 0.12571612 -0.13997175 0.0824002 0.116215885 -0.042360947 -0.00841324
0.13312918 0.049784273 0.052386478 0.0005553216 -0.07622233 -0.111749895 0.18219507 -0.014423072
0.16202173 0.14938194 -0.09547002 0.012409836 -0.046700194 -0.0033150613 0.12032747 0.10053483
-0.10370021 -0.09033966 -0.12970126 -0.15501249 0.117120415 -0.11281594 0.002385974 -0.00024802983
0.031233504 -0.010682017 0.09474453 0.025073573 0.13092163 0.039410308 -0.0022771806 0.025871098
0.12168652 0.027556673 0.12861946 -0.01731284 0.0015830398 0.15338868 -0.17236663 0.018213496
0.1667575 -0.09161791 -0.033677265 -0.010999739 0.060148522 0.06900674 0.04136029 0.07202089

middle_layer.bias f4 [10]
00000000: 8c11 bf3d 3dba 98bd fefe e7bd c890 1dbd
00000010: 1a2e 303e 30ba b6bc 2764 1dbe 5cb2 123e
00000020: 58f5 353d 90ca 013d
0.09329519 -0.07457397 -0.11327933 -0.038468152 0.17205086 -0.022305578 -0.15370236 0.14325851
0.04442343 0.03168732

output_layer.weight f4 [1, 10]
00000000: 6054 5e3d 16ed 613e ba72 13be d200 6c3e
00000010: dfb0 9b3e 7afe a6bd 025f 4c3e e4a7 323e
00000020: e79f 973e ecba 96bd
0.054279685 0.22063097 -0.14399233 0.23047188 0.3040838 -0.08154006 0.19958118 0.17446858
0.29614183 -0.07359871
