training/prices/model.pt (torch, 14683 bytes, 19 tensors)

prices_processor.0.weight f4 [16, 20]
00000000: 7a19 013e b99b c53d d61e 85bd e75e 433c
00000010: 6a8b ea3d 96a6 723d 40f6 9fbe b573 8b3d
00000020: de2f 0b3e 1f91 31be f5bd ab3d 8586 bc3d
00000030: 932c 0d3e 325e e1bc ed36 c1bd 5fe4 0fbd
00000040: 7162 523e 4176 ab3d 8884 60bc 1e2f 333e
00000050: dccc 5fbd 843c 54bb 355f 8cbd 53b8 303e
00000060: cab8 823d 1fe5 b4bd a63d 45bd 7deb b7bd
00000070: 4da3 eb3c a086 76bd e4d9 5f3e 1e71 153c
00000080: bb86 c03e bfe5 d03d 5089 21bd f6d9 453d
00000090: 19b8 be3d 4b66 153e ceae 4e3e 0b16 6b3d
000000a0: fdac ca3d db1e 41be 6fda 08bd a231 a7bd
000000b0: 30ad 853e 497f 9ebb 1601 18bd e91b 97bd
000000c0: f86f a43c fd30 833b 0e0f e83d 32f9 de3d
000000d0: 40c9 103d 9eff 6e3e 04f6 053e 1199 303c
000000e0: f315 413e 0c81 27bd c713 9e3e 7773 7f3d
000000f0: d08b 0f3b 3f35 a23d ea1e 933d 4ef3 02be
00000100: 396c 993e facb 2ebd 4844 c6bc 72bf debd
00000110: 75cd b0bc bf41 98bd 95be 093e c2bb 473e
00000120: 3e8b 873e a454 be3d 76d8 b3bb 5af8 22bd
00000130: c541 e9bb dcbc 833e fcef 563e 6320 803e
00000140: 5449 62be f2f7 ae3d 5622 1cbc 39d7 c3bd
00000150: d477 bb3d 65b9 a23d dc0d 593e 11a1 c8bd
00000160: 19c8 92bc 255b 753d 1efa 213d 4c14 11be
00000170: 4008 de3c a57f 383e 4c96 5bbe 31a5 debd
00000180: d6bb 423d cac0 d1bd 6a07 78bd 07de 83be
00000190: 8b8c cdbe 0bec 773e eda0 19be aab0 dabd
000001a0: 1e9b 2d3e 6896 e13d eed8 b0bd 7cec c03c
000001b0: 51ca 513d 889f e83c b79c f63d f673 26bd
000001c0: f250 0a3d 60f6 e8bd 04b9 a1bd 5b20 e8bc
000001d0: 80d6 1dbe 2372 9ebd 086c bcbd e9ec 13be
000001e0: a569 87be a6d4 ee3d 59df cdbd a3b3 15be
000001f0: b3d1 a53d 45fd f93d 47f4 00bd 57de 02be
00000200: 6a8c 5d3e 5663 253d 976d bb3d 1e94 09bc
00000210: e144 cdbd 144e 363e 8e6d 96bd 36ca bfbd
00000220: 904e 59be 83ca eabd a3d8 bc3d 2f3d 61be
00000230: 04dc 133e e0aa 35be 17fc 1d3d 7221 22be
00000240: b8b8 293e 20dc db3d 38e6 d0bd 1af0 aa3d
00000250: ba96 f63c 3e0a eebd a881 303e c0d9 f33d
00000260: 0571 633d 43a4 333d 3bab 233e e42c 3fbe
00000270: a61c ab3e 1508 b03c cf25 2f3e 68d9 da3d
00000280: 7985 41be f567 683e a6a7 2bbe 6d69 94bd
00000290: 6429 313e 1969 b13d 6807 d0bd ea30 253e
000002a0: 13a4 e53d 3d22 2ebc 4e6f 47bd 4a98 07be
000002b0: cb1b be3d 56a3 02bd f8f0 c039 ec9a 1fbd
000002c0: 8eb7 89be 4800 07bd 9f4c aa3d f2fb 64be
000002d0: 4283 143e 430d 95bc 37aa 7b3d a7ca 28bd
000002e0: cbe1 023e dcd4 d23d 6528 5cbd 27c3 09bd
000002f0: 8c59 77bd 2280 013c cb4e cbbc cdef e3bc
00000300: 0cb1 1abb de88 b53b 6810 0abe 00d0 2bbe
00000310: bacc 553d da68 933c 6d6b e83d 5e3d 4d3c
00000320: 0988 49be 6c26 803d f7e3 a23e 82ae 1fbd
00000330: 343d c83c a75a aabe 9eb3 40bc e47b 2ebd
00000340: 96bc 3cbe 3272 8a3d 688c dfbc 5174 33be
00000350: 0e52 0cbe d285 e13d 0ce0 473e 8e2c 66bc
00000360: 5a77 1cbd 17d4 9cbc a0f5 933c 38ce d73c
00000370: 9ed2 08be 6727 fd3d 4682 18be 2363 f3bd
00000380: e744 0c3c d119 983e d17a 023c ccc8 d53d
00000390: ff91 02be 0905 753c e297 2c3e 351f 5a3e
000003a0: 2364 5c3d b051 413e 8928 383e fb02 a1bd
000003b0: c700 283e 3faa d53d 4342 1d3e 9a9a 463e
000003c0: e168 afbd 7589 7dbd 9f03 e0bd fcab 21bd
000003d0: 439a 2dbe b644 dabb c53c afbc ee95 2e3e
000003e0: cd6c 2fbe d65c 143e dbc2 26bd c7e6 f2bd
000003f0: 1ec2 94ba 922e 31be 1d4c 523d 11b9 b8bd
0.12607375 0.09648842 -0.06500022 0.011924482 0.11452372 0.0592409 -0.3124256 0.06809179
0.13592479 -0.17340516 0.08385841 0.09205345 0.13786535 -0.027510736 -0.094343044 -0.0351299
0.20545365 0.083721645 -0.013703473 0.17498443 -0.05463873 -0.0032384703 -0.06854097 0.17257814
0.06382902 -0.08832764 -0.048154496 -0.08980463 0.028764391 -0.060186982 0.21860462 0.0091212075
0.3760279 0.102000706 -0.039437592 0.048303567 0.093124576 0.14589803 0.2018387 0.05739407
0.09896276 -0.18859427 -0.03341144 -0.081637636 0.26108694 -0.004836951 -0.03711041 -0.0737837
0.020072922 0.0040036426 0.113309965 0.10887374 0.035348177 0.23339698 0.13082129 0.010778681
0.18856029 -0.040894553 0.30874464 0.062365975 0.0021903403 0.07920312 0.07183631 -0.12788126
0.2996538 -0.042674996 -0.02420248 -0.10876359 -0.021582345 -0.07434415 0.13451608 0.19505218
0.2647342 0.09293488 -0.0054884506 -0.039787628 -0.007118436 0.25730026 0.20989984 0.2502471
-0.22098285 0.085433856 -0.009529671 -0.09562535 0.09153715 0.079455175 0.21196693 -0.09796346
-0.01791768 0.059901375 0.03954517 -0.14167899 0.027103543 0.18017443 -0.21444052 -0.108713515
0.047542416 -0.1024185 -0.060553946 -0.2575533 -0.40146288 0.24211137 -0.15002795 -0.10678227
0.16953704 0.11015016 -0.08635126 0.023550265 0.051218335 0.028396383 0.1204161 -0.040637933
0.0337686 -0.11375117 -0.07896617 -0.02833574 -0.15413857 -0.077366136 -0.09200293 -0.14445843
-0.26447788 0.11661653 -0.10052366 -0.14619307 0.080966376 0.122065105 -0.03148296 -0.12780128
0.21635595 0.040377937 0.09151762 -0.00839713 -0.10022903 0.17803222 -0.07345115 -0.093647406
-0.21221375 -0.11464407 0.09221008 -0.21995996 0.14439398 -0.17740965 0.03857049 -0.15833071
0.16574371 0.10735345 -0.10200161 0.08346577 0.030101169 -0.11623047 0.1723696 0.11906767
0.055527706 0.043857824 0.15983288 -0.18669468 0.33420295 0.021488229 0.17104267 0.10685998
-0.18898572 0.22695906 -0.16763172 -0.07246671 0.17300946 0.08662624 -0.10157663 0.1613194
0.11212935 -0.01062828 -0.048690133 -0.13241687 0.09282645 -0.03189405 0.0003680063 -0.038966104
-0.26897854 -0.032959253 0.083153956 -0.22361735 0.14503196 -0.0181948 0.061441626 -0.04120889
0.12781446 0.10294506 -0.05374946 -0.033633377 -0.060388133 0.007904084 -0.024817845 -0.027824307
-0.0023604063 0.0055399975 -0.13482821 -0.16778564 0.052197196 0.017994333 0.11348615 0.012526838
-0.196808 0.062573284 0.31814548 -0.038984783 0.024443246 -0.33272287 -0.011761574 -0.04259862
-0.18431315 0.06760062 -0.02728863 -0.1752484 -0.13703176 0.11011852 0.19519061 -0.014048709
-0.03819976 -0.019144101 0.018061459 0.02634345 -0.13361594 0.12361031 -0.14893445 -0.11884143
0.0085613495 0.29707196 0.007963852 0.104386896 -0.12751006 0.014954814 0.16854814 0.21300967
0.053806435 0.18878818 0.17984213 -0.078618966 0.16406547 0.104328625 0.15357308 0.19394913
-0.08564926 -0.061898667 -0.10938191 -0.039470658 -0.16953377 -0.006661023 -0.021391282 0.17049381
-0.17131348 0.14488539 -0.040713172 -0.118604235 -0.0011349355 -0.17302921 0.05134212 -0.090196736

prices_processor.0.bias f4 [16]
00000000: 38ef bab7 97b6 2839 0b4d 28b7 4f27 a8b8
00000010: c7ff 0e3a 374b 74b7 cfcd 0bb9 99e7 fb38
00000020: 57e7 143a b530 3c38 c9aa 58b9 5f06 6f38
00000030: 3f60 3538 152b a139 d5cd ebb7 fde3 e2b8
-2.2284323e-05 0.00016089749 -1.0031518e-05 -8.018186e-05 0.0005454984 -1.4561046e-05 -0.00013332743 0.00012011751
0.0005680224 4.4868055e-05 -0.00020662988 5.6987974e-05 4.32434e-05 0.00030740412 -2.8110031e-05 -0.00010818986

prices_processor.1.weight f4 [16]
00000000: de11 683f a53a 703f 27dc 543f 472c 793f
00000010: ffaa 853f ec18 873f 260c 873f 885a 703f
00000020: 6517 8e3f 14c7 6b3f cb2f a33f b63a 653f
00000030: 12c2 7d3f 4bfb 983f 2b5f 643f d19a 703f
0.90652263 0.93839484 0.83148426 0.97333187 1.0442809 1.055448 1.0550582 0.9388814
1.110089 0.92100644 1.274896 0.8954271 0.9912425 1.1951689 0.89207715 0.9398623

prices_processor.1.bias f4 [16]
00000000: 48a3 a5be 54b6 7abe 701a 1cbf e1c5 53be
00000010: a5d4 12be e124 27be af68 78be ede8 09bf
00000020: eebb 9fbe 8243 1bbf 844c 58be 5ec4 dabe
00000030: 44a9 23be 0b86 19be 005f 19be 6d79 4dbe
-0.32351136 -0.24483615 -0.6097784 -0.20680954 -0.1433893 -0.16322662 -0.24258684 -0.5387104
-0.31198066 -0.60649884 -0.21122938 -0.4272794 -0.15982538 -0.1499254 -0.14977646 -0.20065852

prices_processor.1.running_mean f4 [16]
00000000: d4db 4341 82e0 9d41 e107 af41 ab7e ca41
00000010: ab23 2ec1 b8c2 67c1 416f 30c1 3a2e 9e41
00000020: b900 0dc1 083a 893f b887 fdc0 3c60 ca41
00000030: 5368 2cc1 004c f3c0 56fc 08c1 537b 8b41
12.241169 19.734623 21.878847 25.31185 -10.883708 -14.485039 -11.027162 19.772572
-8.812676 1.0720835 -7.922817 25.29699 -10.77547 -7.6030273 -8.561605 17.435217

prices_processor.1.running_var f4 [16]
00000000: 6b6f 4742 d68b e942 e990 1343 705b 3843
00000010: 416b 2842 89c7 8e42 052a 3342 3257 0d43
00000020: 9ac8 fc41 e77b 7640 e759 8242 e219 7443
00000030: 8a65 0242 7794 3742 6afd 9b41 7a3a bf42
49.858807 116.77312 147.56606 184.35718 42.10474 71.38972 44.791035 141.3406
31.59795 3.8513124 65.17559 244.1011 32.59916 45.894985 19.498737 95.61421

conditions_processor.0.weight f4 [16, 20]
00000000: e53c 913e 665c f83d 6441 81bd 66a5 693d
00000010: e63e 2fbe 131d babd c82c 203d e8ba 3ebd
00000020: 6a12 55bd 9171 87bc 6f78 843e 690f 50be
00000030: 7ed1 ef3d 299e 99bd 1342 96bc 85bb 213e
00000040: 0bac 3d3e b58f ae3c cd7b 78bd 6062 f23d
00000050: fa60 fdbd 95f6 0c3d 61bf ee3a a9d2 a93d
00000060: 8054 1ebd c073 77bd 3f1f 34be 2a02 04be
00000070: 8ea5 253e 3d60 27be 3642 133e f99e 9ebb
00000080: 6cd0 49be def7 67be e18e 843e 85f4 023e
00000090: 8dac 19be 961c 39bc e307 b93c 268b 11be
000000a0: 3d34 0d3e c26a c43c 8538 e83d e69e 71be
000000b0: a0c6 2d3e b89d dd3c 69f8 103e 264c 863d
000000c0: 444b 833d 92fb 5e3e 4f47 d3bd 068c 40be
000000d0: 439b b03d da27 95be 68c2 b3bd 9925 b4bd
000000e0: e845 e33d 85d0 dcbd b947 3fbd d3af 78bc
000000f0: 74fe 9bbe 7730 8bbd a229 993c 79b8 1bbe
00000100: cb8a 293d e067 623e 6160 373d b7bd c33c
00000110: 7cdc 3cbe 4f9f 173c ad5f cbbd 729d ba3c
00000120: bbf6 323c afab a4bd cd00 2fbe 9906 183d
00000130: bbab 4f3e 5f6a 363e 03a8 9bbd f29e 03bd
00000140: 28e4 6d3e cba6 153e 4b5e 8a3c 2b93 31bd
00000150: 2828 733d 7c34 293d ed83 4abe 52f7 bcbc
00000160: 78cf f4bd 7473 803b 836c a33d 8270 adbe
00000170: 3a8c 513a 88a0 b43d 647b d83c c97d 10bd
00000180: 7a9e 07bc 495a f13d b2fe 36bd a273 193e
00000190: 4982 8dbe 34ca 393e dd54 67bd 0a53 0cbe
000001a0: d015 123c 3cca 9b3e 9850 febd 35f7 8a3e
000001b0: 24d3 323e b5e7 4abe 1e93 18be c144 8a3d
000001c0: fbe1 333c 6757 44bc 2cbb 80bc e0fd f43c
000001d0: c86a 85bd bd2f 613d 2f33 263d fafc e03c
000001e0: e1e6 023e 9f74 663d 4537 6c3c 9032 ca3d
000001f0: 5901 dbbc 5edf 293c 3b7c cf3c c436 e73c
00000200: 5cef 193e d1a8 1bbe bafe cabd a509 82bd
00000210: 7719 873e d572 0e3e eee8 683e f30f 173c
00000220: 7602 603d 4ffc 87be 9f58 47bc 7532 803e
00000230: 90ae 713b 496d 49bc 092e cabc 5a15 dbbd
00000240: 9fd9 003e 1670 773c a145 08bd 2b40 dcbd
00000250: 127d 15be d387 08be d30c 483e 53ea 99be
00000260: be0a 913b 8d71 d33d c566 e33c 4173 9a3c
00000270: 0c55 ea3d 4b90 3fbd ca70 db3c 5a3f 34bd
00000280: 2e45 113e 8514 c53d 4366 45be 6832 8c3d
00000290: 21de 0cbd c15f d8bd 6ad1 1a3e 1d52 1f3e
000002a0: 4307 413e 9b2b 333d 3ac9 c5bd 40a7 3cbe
000002b0: bef0 263d 5935 05be b196 8e3c 2aa6 9ebd
000002c0: 69c7 453e ce7a 633d 8469 a8bd afd0 33be
000002d0: 9df4 9a3e a380 3fbe 5ae3 033e 6ceb 143c
000002e0: 4259 83bc e98e 1abc f9d7 163e 6e61 0cbd
000002f0: 1924 403e a7a1 46bd 53d5 583d aecc b7bd
00000300: fde6 b23d 3ba5 683d 1f92 513e 2b09 dfbd
00000310: 4701 13bd d1af 58bd 8d2f 873d a5bf 1c3e
00000320: fc30 e2bd fdc1 993d 8197 23be e23f 903e
00000330: ce02 01be b29f 3e3d 1bd1 c33d fcbb ed3d
00000340: 8cc7 983d d7da 63bd 5472 db3c 8e96 36bd
00000350: d24b 23be eddd 143e e1e8 3bbd cb93 90bd
00000360: 7eb0 283c 81c4 913c 365f 51bd 069a 69be
00000370: b57d eebc 3928 883e 66e2 0e3e ef5a 033e
00000380: e98f 273e e015 233c 5025 6dbc a9c8 84be
00000390: 2220 663d a507 18be b8bf 5fbe 4005 283e
000003a0: 919b 58be 3995 6cbe e16a b5bb 5d03 6ebe
000003b0: d7fe 0b3e c58d 02bd 49c9 713d 9a3c abbc
000003c0: 9b7a 99bd bb4d 6d3d 2fa0 22be b23f 06be
000003d0: d4fe c03d eb6b 4cbd d483 bf3c 1cad 1c3d
000003e0: 9cbc 89be 7327 233e 9bfa 53be 0c28 b03d
000003f0: 6b27 853d 2580 39be 116a b73d 9354 5b3e
0.2836677 0.121269986 -0.063113004 0.057042502 -0.17113838 -0.09087577 0.039105207 -0.046564966
-0.052019514 -0.016533645 0.25873134 -0.20318379 0.11709879 -0.0750087 -0.018342054 0.1579419
0.1852266 0.02130876 -0.06066494 0.1183517 -0.123720124 0.034414846 0.0018214994 0.08292133
-0.038654804 -0.060413122 -0.17590044 -0.1289145 0.16176435 -0.16345306 0.14380726 -0.0048407284
-0.19708413 -0.22653148 0.25890258 0.1278859 -0.15007229 -0.011298319 0.022586768 -0.14213237
0.13789459 0.023976687 0.11338905 -0.23595771 0.169703 0.027052745 0.14157261 0.06557493
0.0641084 0.21775654 -0.103163354 -0.18803415 0.08623364 -0.29131967 -0.087773144 -0.08796234
0.11097318 -0.107819594 -0.04669926 -0.0151786385 -0.3046757 -0.06796353 0.01869661 -0.1520709
0.04139213 0.22109938 0.04476965 0.023894174 -0.18443483 0.009254291 -0.09930358 0.022780154
0.010923083 -0.080405585 -0.17090149 0.037115667 0.20280354 0.17814015 -0.07600405 -0.032134004
0.23231566 0.14614408 0.016890666 -0.04335324 0.059364468 0.04130982 -0.19776888 -0.02306715
-0.11953634 0.003920013 0.07979681 -0.338749 0.00079936127 0.088196814 0.026426025 -0.035276208
-0.00827753 0.11784799 -0.04467649 0.14985517 -0.27638462 0.1814354 -0.056477416 -0.13703552
0.008916333 0.3042773 -0.12417716 0.2714173 0.17463356 -0.19814952 -0.14899871 0.06751395
0.010979171 -0.011983729 -0.01571425 0.029906213 -0.065145075 0.054977167 0.040576156 0.027464379
0.12783386 0.056263562 0.014417474 0.09872925 -0.026734041 0.010368196 0.025327792 0.028224356
0.15032715 -0.15201117 -0.099118665 -0.06349496 0.26386616 0.13910992 0.22745106 0.009220111
0.054689847 -0.26559684 -0.012167125 0.25038496 0.003687773 -0.012294122 -0.024680154 -0.10697432
0.12583016 0.015102407 -0.03326953 -0.107544266 -0.14598492 -0.13333063 0.19536142 -0.30061588
0.0044263294 0.103243925 0.027758965 0.018853785 0.11442003 -0.046768468 0.02678718 -0.04400573
0.14186546 0.096230544 -0.19277291 0.06845552 -0.034391526 -0.105651386 0.15118948 0.15558667
0.18850426 0.043742757 -0.096575215 -0.18423176 0.040756933 -0.13008632 0.01740584 -0.07746537
0.1931435 0.055537038 -0.082232505 -0.17560075 0.3026475 -0.18701415 0.12879696 0.009089332
-0.016033772 -0.0094334865 0.14730825 -0.034272604 0.1876377 -0.048494007 0.052937817 -0.089745864
0.08735464 0.0567982 0.20465897 -0.108904205 -0.03588989 -0.052902047 0.066008665 0.15307482
-0.11044499 0.075077035 -0.15975763 0.2817374 -0.12598726 0.046539016 0.09561368 0.11608121
0.074599355 -0.055628624 0.026787914 -0.044577174 -0.15946892 0.14537783 -0.045876388 -0.07059439
0.010295985 0.017793896 -0.05111619 -0.22812662 -0.029112676 0.26593187 0.13953552 0.12827657
0.16363491 0.009953946 -0.014474228 -0.25934342 0.056182988 -0.14846666 -0.21850479 0.16408253
-0.21153094 -0.23103799 -0.0055364226 -0.2324347 0.13671432 -0.031873483 0.05902985 -0.02090292
-0.07494088 0.057935458 -0.15881418 -0.13110235 0.094236046 -0.049907606 0.02337829 0.038251027
-0.2690171 0.15933017 -0.20701067 0.08601388 0.06501659 -0.1811529 0.089557774 0.21418981

conditions_processor.0.bias f4 [16]
00000000: c5f4 a9ba 54e1 9db8 ae1d 25ba 078b c1b9
00000010: ad7c 5bb9 21e2 d3b8 a224 54ba fa1d 6139
00000020: 2b2d 85ba dd60 beb7 14e3 67ba 4513 1639
00000030: b1a0 eab8 1bdc 21ba f7d4 a337 3f3e f9b9
-0.0012966624 -7.528314e-05 -0.0006298673 -0.00036915412 -0.00020931913 -0.00010103384 -0.0008092617 0.00021468839
-0.0010160556 -2.269487e-05 -0.0008845788 0.00014312293 -0.000111879206 -0.0006174461 1.9530284e-05 -0.00047539358

conditions_processor.1.weight f4 [16]
00000000: bb37 433f 2f30 7e3f d0b0 8d3f 3096 6f3f
00000010: 3463 6b3f 8b56 3a3f 6c45 793f 5250 753f
00000020: 0a5f 8d3f fb7d 763f 511b 683f e5f0 7a3f
00000030: 5f58 5b3f 040c 693f f257 643f 861e 6d3f
0.7625691 0.9929227 1.1069584 0.9358854 0.91948247 0.72788304 0.97371554 0.95825684
1.1044629 0.9628598 0.9066668 0.98023826 0.8568172 0.9103396 0.89196694 0.926247

conditions_processor.1.bias f4 [16]
00000000: 3985 11bf 118c 37be afea f4be 58c4 01bf
00000010: 04c0 c6be f9f1 1bbf a7cb 4cbe 3548 75be
00000020: 22ab c7be 89ec 74be 6248 2bbe 48cc 62be
00000030: ae2f c4be 2a51 84be 4a30 aebe 36ae babd
-0.56843907 -0.17924525 -0.478353 -0.5069022 -0.3881837 -0.60916096 -0.19999562 -0.23953326
-0.3899775 -0.23918356 -0.1672683 -0.2214824 -0.38317627 -0.25843173 -0.34021217 -0.09115259

conditions_processor.1.running_mean f4 [16]
00000000: dbe3 cf3e 4b98 3ebf 341e e3bd 10ea 15be
00000010: ae04 80bd 2965 303f 9f57 933f 9478 01bf
00000020: e840 48bc 0146 3a3f b4e5 f33d 6087 c1bd
00000030: ab55 1bbf 67dc e5bf c081 913e f7e9 62bf
0.40603527 -0.7445113 -0.11089745 -0.14640069 -0.062508926 0.6890436 1.1511115 -0.5057461
-0.012222506 0.7276307 0.11909047 -0.09449649 -0.60677594 -1.7957886 0.28419304 -0.8863825

conditions_processor.1.running_var f4 [16]
00000000: 86d2 a83e 5882 c63e 19f6 a53e 1c21 673e
00000010: 1e83 983e 77e9 c23e 2e53 263f 7a3f a03e
00000020: 25d4 613e 035d c83e 84b8 723e 048b 683f
00000030: 7fd5 cb3e 91d3 953f ed7e 8e3e 3b58 083f
0.32973117 0.3877132 0.3241432 0.22571224 0.29787534 0.38068745 0.6497067 0.3129843
0.22053583 0.39133462 0.237032 0.9083712 0.39811322 1.170519 0.27831212 0.5325963

middle_layer.0.weight f4 [32, 32]
00000000: 49e5 a53c 2a59 5239 8c75 eebc 2911 93bb
00000010: 6ce0 3bbe ab67 10be 4f35 27be 0bf4 173b
00000020: 87b1 983c d2e0 a93c 4798 74be 24de 863a
00000030: db6e 35be 3f92 3d3e ee00 40be e965 d9bb
00000040: 0e8c 18be 800b 81bd 18f7 003d 0c30 803d
00000050: 14d3 ea3c 5595 b43d e6d3 31bd 8b2a 453d
00000060: f38c d33e da16 97bb f4c0 5cbe 3fd4 f03b
00000070: 117f 4d3d 9009 99bd 092e 79be 68fe b1bd
00000080: 26bb 9b3d 9088 bcbd 5e22 513d 2135 283c
00000090: ba8a 52bd 9aed ef3c dbdf 323c b4b5 b43d
000000a0: e7f4 bc3d 6ff9 8cbe 0a14 743e 5aa7 e43d
000000b0: 2ef1 0e3e f0a7 12bd 1c24 5d3d 7004 d3bc
000000c0: 12e2 63be 48d3 103d 9790 bf3d 4288 d23d
000000d0: c7f3 87be aca1 cb3d 8f69 0abc 135b c4be
000000e0: 7e0f 09bd 58c7 2b3c 9ac9 a33c 8b53 13bd
000000f0: 5c91 a8bd ff8c 1ebc c461 46bd 4658 233d
00000100: 0859 92be 5f6b d9bd 328b 213e 0218 0c3e
00000110: dabf 573d c0ec 37bd b847 a23c 6522 243e
00000120: b14b c7bd 29d9 b5bb a144 163e 2b39 a3bd
00000130: be03 a03c fa2c 173e bd02 c13c 2f6b 973d
00000140: b4b2 2dbe c2c6 473d 8227 59bc fd2d 53bb
00000150: 2bfa 9fbd b1ff 883d 87b3 e9bc c488 14bd
00000160: f9d3 93bd 74cf 073c ae26 bd3c 99d5 85bb
00000170: 9243 2d3c eb61 c63d a7bf 98bd b40d 9cbe
00000180: 3415 443b 4121 a73c d486 9b3c 9e59 8e3c
00000190: 71a9 35be 8c9e 4ebe f4a8 85be 7748 2f3c
000001a0: d165 01bf 4374 a83c dc7b b9bd dd9e 93bb
000001b0: 1f19 8dbd 92b4 10be d898 96bd 83c4 7b3c
000001c0: b932 01be 41ee 59be 8d93 e33d fa54 3e3d
000001d0: b514 833b 6a2b 5c3d aa47 593c f663 e93c
000001e0: 4f5c 713e b912 ebbd e11b f83b 204d 19be
000001f0: c091 2abd 04f4 c0bd 55c7 91bc de21 16bd
00000200: 271a 553d 77a7 6c3d ef68 443c fb37 423d
00000210: dc8c 75be 3c4e acbe fb0f 7ebe 8749 8a3d
00000220: b1e4 a2bc 4bf3 b33c a65f 11be 03bb 823d
00000230: f4a6 23be dc5a 123d edbc eabd e33b 463d
00000240: 26f4 51bd cc0b b03d 9812 61bd 3a32 8d3d
00000250: 009e 283d bd8e d23d ab4a d3bc 6b9c 9f3d
00000260: b67b 67be 81f6 473d daaf 433d 2572 17be
00000270: 8884 cc3d b10a 833d f57c cb3d 0484 643d
00000280: eb74 8dbd 71fc bebd 0c63 debd 6201 ae3e
00000290: 851e 67bb cb84 dabb 5b61 44bb 9584 c0bd
000002a0: 1bfd 77bb 181e 2ebd 7b66 ddbc c40d babd
000002b0: a033 713c 355f 89bc e753 b43c d001 bcbd
000002c0: 4026 f43c 17a2 8c3b b5e5 883d 49d3 98bd
000002d0: bddd 37bc f071 1dbd 27a9 f13b dc9e 95bc
000002e0: 6340 223e b439 7e3c b0bf ad3d 3b0e 563d
000002f0: b124 cfbd 614b e0bc 3956 203d aa72 e83d
00000300: ff4e 553d 0cd6 8c3d 4a69 793d 6d22 333d
00000310: dedd 37be 18a0 76be 049e a2be 055a 843d
00000320: 2831 7abe 6d30 6a3d 1167 f4bd 9e58 6a3d
00000330: 63f8 a2bd 45cb 0cbe 565e dbbd f5a7 573d
00000340: 2513 afbd 8ece d13d 61dd 02be 590a 913d
00000350: 7eeb 573d 9735 cb3d 33d6 733d fa15 883d
00000360: 8ac9 32be ba13 203d 4f4b e7bd 5888 923c
00000370: fadb 3c3c 52f5 653d 2e80 323d 74ed 893c
00000380: b714 813c 8d3f 16bb 4882 9939 2c14 dabb
00000390: 031a cc3d a402 99bc 0c21 523d 939d 833c
000003a0: 3d46 bebd 06dd 3a3c 6a04 0bbf 635f cb3b
000003b0: 9694 a6bd c077 2cbe dbe6 01be 343f 963c
000003c0: 746c 86bd b49f e6bc 9e25 343e 3d0c d23c
000003d0: 2a02 2cbd e489 123e 2c00 c1bb 2ab6 16bd
000003e0: 30d0 91be 41b1 cb3b 8dba 4fbe 5ae7 a3bc
000003f0: 264d 643d 8043 69bd cf01 1fbd acf3 05bc
0.020250933 0.00020060377 -0.029108785 -0.0044881296 -0.18347329 -0.14102046 -0.1632893 0.0023186232
0.01863934 0.020737085 -0.23886214 0.0010289592 -0.1771807 0.1851282 -0.18750355 -0.006634463
-0.14897177 -0.063010216 0.031485647 0.06259164 0.028665103 0.08817545 -0.043414973 0.048136275
0.41318473 -0.0046108784 -0.21557981 0.0073495205 0.050170008 -0.07472527 -0.24333967 -0.08691102
0.07604055 -0.09205735 0.051058166 0.010266573 -0.05140183 0.029288102 0.010917629 0.088237196
0.09226399 -0.27534053 0.2383577 0.11164732 0.1395919 -0.03580469 0.053989515 -0.025758952
-0.22254208 0.035357744 0.0935375 0.10279895 -0.26553175 0.09942946 -0.008448019 -0.38350734
-0.03346204 0.010484539 0.019993592 -0.035968345 -0.0823085 -0.009677171 -0.04843308 0.039879106
-0.2858355 -0.106161825 0.15775755 0.13681033 0.0526732 -0.044903517 0.019809589 0.16028745
-0.09731234 -0.005549569 0.14674617 -0.07969888 0.019533034 0.14763251 0.023560876 0.073934905
-0.16962701 0.048773535 -0.013254048 -0.0032223456 -0.07811388 0.06689394 -0.028527988 -0.036263242
-0.07218165 0.008289207 0.023089733 -0.0040843007 0.010575192 0.09686645 -0.0745843 -0.30479205
0.0029919865 0.020401599 0.01898519 0.017376717 -0.17740418 -0.20177668 -0.26105464 0.010698429
-0.50545985 0.02056325 -0.090568274 -0.004505022 -0.06889557 -0.14131382 -0.073533714 0.015366676
-0.12617005 -0.21282293 0.111121275 0.04646776 0.004000271 0.05375234 0.013261715 0.028490048
0.23570369 -0.114781804 0.007571683 -0.14970827 -0.041642904 -0.09421542 -0.017795244 -0.036653392
0.052026894 0.057776894 0.011987909 0.04741667 -0.23979515 -0.33653438 -0.24810784 0.067523055
-0.01988444 0.021966597 -0.14196643 0.06383326 -0.15981656 0.03573118 -0.11461816 0.048396956
-0.05125823 0.08596 -0.054949373 0.068943456 0.041166306 0.102811314 -0.02579244 0.07793506
-0.22605786 0.04881907 0.047775127 -0.14789636 0.09986216 0.063985236 0.09935943 0.055789962
-0.06907066 -0.09325493 -0.108587354 0.3398543 -0.0035265994 -0.006668662 -0.0029965255 -0.09400288
-0.0037840072 -0.04250917 -0.027026406 -0.09084657 0.014721781 -0.016769031 0.022012664 -0.09180033
0.029803395 0.0042917836 0.06684438 -0.074621744 -0.0112223 -0.038438737 0.007374901 -0.018264227
0.15844874 0.015516687 0.08483827 0.052259665 -0.1011442 -0.027379693 0.03914473 0.113499954
0.05207729 0.06876764 0.060891427 0.043734003 -0.1795573 -0.24084508 -0.3176118 0.06462482
-0.24432814 0.05717509 -0.11933721 0.05721342 -0.07957532 -0.13749416 -0.107113525 0.05265041
-0.085485734 0.10244475 -0.12779762 0.07082052 0.052714817 0.09922331 0.05953045 0.06644817
-0.17459694 0.039081313 -0.11293661 0.01788728 0.011527056 0.05614216 0.043579273 0.01683686
0.015756948 -0.0022926063 0.000292795 -0.0066552367 0.09965899 -0.018678017 0.051301047 0.016066348
-0.09290741 0.011405235 -0.5430361 0.0062064393 -0.08133809 -0.16842556 -0.1268572 0.018340684
-0.065636545 -0.028152324 0.17592475 0.025640601 -0.04199425 0.14310414 -0.005889913 -0.03679482
-0.28479147 0.0062161987 -0.20286007 -0.020007778 0.055737637 -0.05694914 -0.038820084 -0.008175772

middle_layer.0.bias f4 [32]
00000000: d94d 6b39 04b4 9839 a72c 04b9 1152 873a
00000010: 7f12 3d3a 37c3 173b 508f a1b9 49c4 153a
00000020: 639a 62ba 8886 2038 9726 8139 6a37 4e3a
00000030: a6f5 843a d5a3 ac38 60d7 313b 1a37 b939
00000040: f7ca 1939 16dd 2638 361e 5bba b566 ea3a
00000050: ddad cc39 cc83 963a a621 aa3a 9a6f 353a
00000060: 284a 713b c2da ae3a 446d 9b3a d60b a03a
00000070: 5d46 db3a c272 753a 5ab1 8539 d616 7c3a
0.00022440347 0.0002912582 -0.00012605135 0.001032414 0.0007212534 0.0023157129 -0.0003081509 0.00057131477
-0.0008644221 3.8272265e-05 0.0002463355 0.00078665337 0.001014401 8.232115e-05 0.002713643 0.00035327004
0.00014666827 3.9783386e-05 -0.0008358689 0.0017883392 0.0003903945 0.001148337 0.0012979999 0.0006921232
0.0036817882 0.0013340341 0.0011858125 0.0012210559 0.0016729344 0.00093631085 0.00025499874 0.000961644

middle_layer.1.weight f4 [32]
00000000: 3bac c53f 3420 d13f 5e26 d23f 5e58 cc3f
00000010: 5cf4 c63f f68f ce3f 2956 d03f df13 c83f
00000020: 8028 c03f b857 bf3f 6330 bf3f cb19 c13f
00000030: e2c3 c33f 5f91 c83f 25b7 c63f ad53 cc3f
00000040: 2a16 c03f d836 cb3f 68bd c33f e217 c33f
00000050: 7e6c d83f 6b1d c53f 50d2 ba3f 6b53 cc3f
00000060: 4c49 cb3f c3c5 b73f 6a24 c43f f7e0 cb3f
00000070: eabb cd3f 863f d73f fcac c33f b1d1 cc3f
1.5443186 1.6337953 1.6417959 1.5964468 1.5543323 1.6137683 1.6276294 1.5631064
1.501236 1.4948645 1.4936641 1.5085996 1.5294154 1.5669364 1.5524641 1.5963036
1.5006764 1.5876112 1.5292177 1.5241663 1.6908109 1.5399603 1.4595432 1.5962957
1.5881743 1.4357227 1.5323613 1.5928029 1.6072972 1.6816261 1.5287166 1.6001493

middle_layer.1.bias f4 [32]
00000000: 366a 1c3f 8177 113f 9853 033f 189d c03e
00000010: 68aa fd3e 7579 263f 5bd3 f33e e927 243f
00000020: 603c 303f 4506 0f3f fa46 273f 87de 003f
00000030: c7ff 263f 5cb1 ec3e 7a00 4d3f 70d8 103f
00000040: 8f13 1f3f ed96 e73e 93cf 113f 2b12 2f3f
00000050: 6463 fb3e f7e1 183f 3c1e 083f bbf2 c63e
00000060: 56c9 4d3f c28d 143f f56c 133f 0118 183f
00000070: 48d3 ab3e 5fce 073f 94eb 0a3f 4987 be3e
0.61099565 0.56822973 0.5129943 0.37619853 0.49544072 0.6502908 0.4762219 0.641234
0.68842125 0.5586894 0.65342677 0.5033955 0.65234035 0.46229064 0.8007885 0.5658026
0.6213922 0.45232335 0.5695736 0.683871 0.49099267 0.59719795 0.53171134 0.38857064
0.8038534 0.58028805 0.5758813 0.5941163 0.33559632 0.5304927 0.54265714 0.3721259

middle_layer.1.running_mean f4 [32]
00000000: 135d a4be 1ae3 d23c 76e9 4abd 08d3 09bf
00000010: 840b 80be 0d9b 9f3d 05d3 9ebe b3c9 e3be
00000020: cc3f cdbe 31b9 e1bd 3103 26be 10bd 1fbe
00000030: 8ca4 dcbd 7541 6fbe c87c 9ebe aa59 703d
00000040: a3fa 84be a16b 5abe 77ca 6d3d aae4 48be
00000050: 9511 0ebf 9676 ccbb cf92 9cbe 73ea a8be
00000060: b1ed 22be 337e f7bd 37f8 ae3d ee7b 37be
00000070: ee9a e0be acf0 243e 4ae5 e0be 863e 0bbf
-0.3210226 0.025743056 -0.049539052 -0.53837633 -0.25008786 0.077932455 -0.3102037 -0.44489822
-0.40087736 -0.110216506 -0.16212155 -0.15599465 -0.10773572 -0.23364814 -0.30954576 0.05867926
-0.2597247 -0.2133012 0.058054414 -0.19618478 -0.5549558 -0.0062397225 -0.30580756 -0.3299137
-0.15910985 -0.120846175 0.08543437 -0.17918369 -0.43868202 0.16107434 -0.43924934 -0.5439228

middle_layer.1.running_var f4 [32]
00000000: 7484 d53e 248d 7a3e a9cb 2d3e f771 3d3f
00000010: e23c 163f f639 bf3d 7abf 3a3f e29e cf3e
00000020: 0659 923e 881b e33e f855 b43d 6f0d 083f
00000030: c2f2 eb3e b7f8 883f 1736 293e eece 903e
00000040: d7ec 0f3f 01ab 003f c968 273f 8d59 1f3e
00000050: c389 6c3f 1efe 3d3e 4a9b fb3e 80a0 be3e
00000060: 9c2a f83d bac7 243f 70c0 f43e e318 503e
00000070: c149 e03e 7393 363e 60eb b83e 4370 8b3f
0.41702616 0.24467903 0.16972221 0.7400202 0.5868665 0.09337227 0.7294842 0.40550905
0.28583544 0.44356942 0.0880546 0.531455 0.46083647 1.0700902 0.1652454 0.28282875
0.56220764 0.5026093 0.65394264 0.15561505 0.9239771 0.1855397 0.49141914 0.37231827
0.12117502 0.6436726 0.47803068 0.20321994 0.4380627 0.17829685 0.36117077 1.0893635

output_layer.weight f4 [1, 32]
00000000: a747 023f cbe2 143f 32c1 0d3f b67f 243f
00000010: ff16 103f c829 0e3f 2e04 033f 3559 083f
00000020: c20d 073f d03a ea3e 7202 0b3f 06a5 133f
00000030: ac18 fb3e 1238 0b3f d7fb 173f da90 1b3f
00000040: 9724 203f ec66 1a3f a0bb 013f de8e 3a3f
00000050: 215e fb3e ffa6 023f b848 1d3f a1bc 2e3f
00000060: c7b8 233f ecd0 1a3f 5640 093f 5093 f23e
00000070: 993a 263f 16c7 1b3f 9b2e 1a3f 3a32 2e3f
0.5089058 0.5815856 0.5537292 0.6425737 0.5628509 0.55532503 0.5117825 0.5326112
0.5275537 0.45747995 0.54300606 0.5767368 0.4904226 0.5438243 0.5936865 0.607679
0.6255583 0.60313296 0.5067692 0.7287425 0.49095252 0.51036066 0.61439085 0.68256575
0.6395382 0.6047504 0.53613794 0.47378016 0.6493316 0.60850656 0.60227364 0.6804539
