training/prices/model.pt (torch, 14683 bytes, 19 tensors)

prices_processor.0.weight f4 [16, 20]
00000000: 6e5b 013e e219 cf3d 4f73 e3bc 178b 803d
00000010: fe01 f23d c1d9 983d 1ad7 98be b767 513d
00000020: 0436 803d b059 1cbe 15c9 183e c7a6 d73d
00000030: af56 413e 7552 ba3a e3ea 2ebd 0348 a7bd
00000040: 97e9 653e 4c8e c93d 5a0a 943d 0219 163e
00000050: aaef 4bbd a261 5d3d 9468 27be 614d cb3d
00000060: a6c5 283e 81ea 19bd 22b8 b9bd c263 04be
00000070: 00dd 9c3c f295 51bd c583 6f3e ce6b 623d
00000080: 6d1e a03e e091 d53d f45a 5cbd d278 ae3d
00000090: 9ea7 193e 4f05 e23d 4215 503e 0b44 bd3d
000000a0: ed14 803d 8783 96be 34e1 85bd 0580 a7bd
000000b0: b233 893e e4f5 873b 43be 95bb 7294 bebd
000000c0: bb0e 613d e015 d8bc 0f5c d63d 5c7b bd3d
000000d0: d9c7 ecbb 068d 7e3e ba1d b53d 455e b2bd
000000e0: 782d 2c3e d71b 82bd bb9d 673e ffe9 d13d
000000f0: ed41 6c3d 9795 ff3c 154b 33bc 0ed6 2dbe
00000100: 8892 813e 9c9a 09bd 4da8 093c 2df0 03be
00000110: 65ee d83c e4d6 d0bd f8d4 0a3e 9091 473e
00000120: e47a 383e 9dea bc3d 0c85 32bd 0dac d0bd
00000130: a694 f6ba d1c8 623e 4564 533e 2991 a53e
00000140: c734 7abe f146 9e3d 3958 8cbc 230c c2bd
00000150: f8a8 973d 9d6e b73d 211d 6b3e b83f d9bd
00000160: faf6 02ba 9864 423d e696 293d dd5a 06be
00000170: 9bb7 cb3c 855d 1b3e eb4c 5ebe 1ac7 01be
00000180: 7d1d 853d 5206 b4bd 6a47 8cbd 310d 92be
00000190: 9b26 d6be b494 863e 57e7 ffbd a43b b9bd
000001a0: 1588 343e e500 9a3d a3ef 8fbd 8542 1b3d
000001b0: 6fc2 683d f9e9 0c3d 804a f03d 5363 01bd
000001c0: 419b 253b 3840 e9bd 4b2a d5bd 0273 febc
000001d0: 7203 ccbd 4308 2cbd 86e5 0bbe 7446 2abe
000001e0: 7811 8ebe c181 dd3d f82a cdbd 6b3f 03be
000001f0: 7d7a 753d 842b 083e d9ab cebc 73eb 05be
00000200: 7fdc 583e 4954 0b3d ab55 ba3d 8c06 31bc
00000210: 9207 d0bd 4b76 413e d810 a3bd 9488 c7bd
00000220: 2ea3 4bbe a31c e3bd 8cfc ba3d 9955 61be
00000230: 265a 993d 12a6 fbbc ef74 093e e154 f4bd
00000240: 9c1d 613e e701 043e a237 50be 7d9e 033d
00000250: 2524 88bc 227e c7bd 715c 283e 1129 f63d
00000260: 939c 903d 8081 0d3d 90ce 193e 69db 78be
00000270: 1c4c 7f3e 540b aa3d 16dd 503e 4e10 843d
00000280: 1d79 26be 04ed 793e 4bc6 30be 6531 9dbd
00000290: 3dc3 143e 0a29 9a3d 1fb9 cabd b6df 263e
000002a0: 105d f93d c21b b0bc 687c fabc 9595 0bbe
000002b0: 1440 ba3d 75a2 1bbd 0293 8a3b 2d43 37bd
000002c0: 6b31 8abe 862f 55bc e7b6 b03d 081f 66be
000002d0: 9487 0c3e 9e55 203e 8145 3e3d 37c6 40bd
000002e0: a9b9 7f3d f138 a73d b845 40bc ee48 89bd
000002f0: ee24 cdbd 0704 f13c 46d0 b4bd 8121 62bc
00000300: 7474 55bd a568 1bbc ec52 15be 04ed a6bd
00000310: 1c17 883d 3e9b dfbc ddf4 c43d 10a0 a63d
00000320: 6d29 1fbe 51b8 c53b ac80 a73e 9568 87bc
00000330: 95ec e0bc 8d1e bfbe d5c8 8e3c df86 05bd
00000340: a65e 23be 7575 b53d 4e37 593d 7090 28be
00000350: 4422 20be d8e6 af3d fcad 3d3e 0717 083d
00000360: c4ff 5bbd 6da7 dabc 1a14 d5bc ee76 213d
00000370: 5a4d 25be 2898 9a3d aa95 20be 3cbd e4bd
00000380: c3c8 b0bb 743c b33e f277 a1bc 6db9 563d
00000390: cc7e b2bd cd13 18bc 2bae 253e a2a4 4c3e
000003a0: ca73 febb e541 493e eaff 283e c8d7 0cbe
000003b0: c72f 283e f003 803d bfce 2c3e 9961 303e
000003c0: 7cb6 b9bd 4a2b 85bd 0c42 e6bd 85d0 3fbd
000003d0: 4f4b 3abe 15c8 78bc a0e4 afbc a723 313e
000003e0: 4d9c 23be b18f 133e 84f3 c0bc 6e2b c0bd
000003f0: e599 0fbd c62a 43be d47a 303d 528a 8dbd
0.12632534 0.10112359 -0.027764944 0.06276529 0.11816786 0.07463408 -0.2985161 0.0511243
0.06260303 -0.15268588 0.14920457 0.10529857 0.18880723 0.0014215248 -0.042704474 -0.08168032
0.22452389 0.09841594 0.07228537 0.14657977 -0.04978911 0.054048188 -0.16348487 0.09926868
0.16481647 -0.037577156 -0.09068324 -0.1292868 0.01914835 -0.05116839 0.2339011 0.05527859
0.31273213 0.10428214 -0.053797677 0.085191384 0.15005347 0.11036169 0.20320609 0.09241494
0.06253991 -0.29397222 -0.06537095 -0.08178715 0.26797253 0.0041491855 -0.0045698 -0.093056574
0.05494569 -0.026377618 0.104667775 0.092520446 -0.007225972 0.24858484 0.088435605 -0.08709387
0.1681422 -0.06352966 0.22618763 0.10249709 0.05768006 0.03119926 -0.010943194 -0.16976187
0.25307107 -0.033594713 0.008401942 -0.12884589 0.026480863 -0.10197237 0.13557804 0.19489121
0.18015629 0.092244364 -0.043583915 -0.10189066 -0.0018812611 0.22146918 0.20643719 0.3233731
-0.24434195 0.07728375 -0.017131912 -0.09474971 0.07405275 0.08956645 0.2296033 -0.106078565
-0.0004995909 0.047459215 0.041403674 -0.13120599 0.024867823 0.15172394 -0.2170903 -0.12673607
0.06499765 -0.08790268 -0.06849559 -0.2852569 -0.4182633 0.26285326 -0.124952964 -0.09044579
0.17630036 0.07519702 -0.07028129 0.037905235 0.05682605 0.03440282 0.1173296 -0.031588864
0.002526954 -0.11389202 -0.10408457 -0.0310607 -0.09961595 -0.042000066 -0.13661775 -0.16628438
-0.27747703 0.10815764 -0.10017961 -0.12817161 0.059931267 0.1329785 -0.025228428 -0.13078098
0.21177863 0.034015927 0.09098371 -0.010804784 -0.10157694 0.18892781 -0.07962197 -0.09742847
-0.19886467 -0.110894464 0.09130201 -0.22005309 0.074878976 -0.030718837 0.13423513 -0.11930252
0.21983951 0.1289135 -0.20333722 0.032133568 -0.016618798 -0.09740855 0.16441514 0.120195515
0.07061114 0.03454733 0.15020204 -0.24302448 0.24931377 0.08302942 0.20396838 0.06448422
-0.16257139 0.2440682 -0.17263143 -0.07675437 0.14527602 0.07527359 -0.0989859 0.16296276
0.121759534 -0.021497611 -0.0305769 -0.1363128 0.09094253 -0.037996728 0.0042289505 -0.0447418
-0.26990828 -0.013011819 0.08628636 -0.22472775 0.13723594 0.1565766 0.046453003 -0.047064032
0.06243292 0.081651576 -0.011735372 -0.06703363 -0.100168094 0.029420866 -0.088287875 -0.013801933
-0.05211301 -0.009485398 -0.14582413 -0.08150676 0.06645033 -0.027295705 0.096170165 0.08135998
-0.15543146 0.006033935 0.32715356 -0.01652936 -0.027456561 -0.37327996 0.017429749 -0.032599326
-0.15954074 0.08860294 0.05303126 -0.16461349 -0.15638071 0.08588952 0.18523401 0.033225086
-0.053710714 -0.026691163 -0.026010562 0.03942006 -0.16142789 0.07548553 -0.15682092 -0.11168906
-0.0053950264 0.3500706 -0.019710515 0.05242293 -0.08715591 -0.009282065 0.16179721 0.19984677
-0.007765268 0.19654043 0.16503873 -0.13754189 0.16424476 0.06250751 0.16875742 0.1722473
-0.09068009 -0.06502397 -0.11243066 -0.04682972 -0.1819279 -0.015184422 -0.021471322 0.17298757
-0.15977593 0.14410283 -0.023553617 -0.093832836 -0.035058875 -0.19059286 0.043085888 -0.06911148

prices_processor.0.bias f4 [16]
00000000: 2f71 3837 ea91 7438 b587 88b7 5eef 92b8
00000010: 1340 2539 c9b3 9bb8 e911 063a fa17 54ba
00000020: 1fb2 b739 c189 a5b8 cdb4 023a da9d 63b8
00000030: d7b6 c6b8 139f 083a b0ba 9539 3db6 02b9
1.0993607e-05 5.8310026e-05 -1.6275657e-05 -7.006408e-05 0.00015759496 -7.4244635e-05 0.0005114363 -0.0008090731
0.0003503719 -7.893472e-05 0.0004986048 -5.4268028e-05 -9.475432e-05 0.0005211692 0.00028558588 -0.00012465655

prices_processor.1.weight f4 [16]
00000000: 00bb 683f feea 7e3f 123a 4e3f a3ec 7a3f
00000010: 6524 843f 171b 863f 5abe 883f 6f25 763f
00000020: 8157 8d3f e08a 6a3f d0a4 a53f 1c74 643f
00000030: 2a73 783f ba48 913f e441 653f 017f 6f3f
0.9091034 0.9957732 0.8055736 0.9801733 1.0323607 1.0477017 1.0683091 0.9615087
1.1042329 0.91618156 1.2940922 0.8923967 0.97050726 1.1350319 0.89553666 0.9355317

prices_processor.1.bias f4 [16]
00000000: 55e7 85be 6803 53be 27ee 28bf d658 aebe
00000010: 046f 10be b598 12be ed08 82be c6dc 96be
00000020: ec03 a4be 54fa 30bf 1c25 71be 314d f6be
00000030: 0cb2 1bbe 31d4 46be 8dc6 cbbd c2b0 87be
-0.26153055 -0.20606768 -0.6598839 -0.3405215 -0.14104849 -0.14316066 -0.25397435 -0.29465312
-0.32034242 -0.6913197 -0.23549312 -0.48105767 -0.15204638 -0.19416882 -0.0994998 -0.26502043

prices_processor.1.running_mean f4 [16]
00000000: 9c28 8c41 7267 a641 6368 6a41 5d22 ac41
00000010: 0507 43c1 b924 65c1 28d0 31c1 5673 9241
00000020: 9710 05c1 5136 9a3f 5da6 d8c0 9c5e a041
00000030: b230 2ec1 bc8d 06c1 e122 18c1 d4c7 6a41
17.519829 20.80051 14.650485 21.516779 -12.189214 -14.3214655 -11.113319 18.306316
-8.31655 1.2047826 -6.770308 20.046196 -10.8868885 -8.409603 -9.508515 14.673786

prices_processor.1.running_var f4 [16]
00000000: b174 ba42 6674 0443 5d40 8842 eca9 1043
00000010: 115b 4742 a25c 8942 a2c3 3242 9594 ca42
00000020: 5659 d841 fa14 ad40 1fba 3042 8b25 2143
00000030: e9b2 ff41 bd92 5542 b322 c041 47ee 8c42
93.22791 132.45468 68.12571 144.66376 49.838932 68.68092 44.691048 101.2902
27.043621 5.4088106 44.18176 161.14665 31.962358 53.3933 24.016943 70.465385

conditions_processor.0.weight f4 [16, 20]
00000000: 91d8 843e ef04 673e 9631 47bd 3a30 8e3b
00000010: a5ef 23be 9ae9 10bd 40df c2bc 1c61 5fbd
00000020: e349 7ebd b0c2 e7bc d5b4 833e 7172 53be
00000030: ba3c e63d 603f 89bd aac8 09bd 571e 343e
00000040: 806a 3d3e 7295 a8bc e65a 08bd 6324 e83d
00000050: 8b6b 40bd be89 ca3d 4905 893a e4ed dc3d
00000060: 0c28 53bb 4dab d2bd 8975 0fbe 9f2e d8bd
00000070: da95 0b3e 6605 24be 5d0f 093e 21f4 6ebd
00000080: 0650 38be 05ef a4be 659b 543e cd42 0d3e
00000090: 1f88 9abd d31d 11be cf70 13bd 668b b5bd
000000a0: 9a28 953d 7970 f9bb 551f f83d cde4 76be
000000b0: 3e23 3a3e b715 123d a8dd 183e 7af1 363d
000000c0: 2f14 a93c e52d 693e 6566 fbbd 17f3 13be
000000d0: eb36 923d 716c 93be 7da3 9ebd ce19 bbbd
000000e0: 96bc 023e c492 c1bd 3c72 fbbc a90d c5bc
000000f0: dad5 8fbe 7baf 43bd 3c5c f6bb 1e6b 06be
00000100: d0c4 3f3c 34db 643e 7845 1f3d 451e 4e3c
00000110: fbaa 30be 216c 393c 6d0b dfbd 3aee febb
00000120: 8a7d bbbb ccda 94bd eed2 3bbe d5f1 363d
00000130: 59f6 633e c6b2 493e b5ad b4bd 221c 06bd
00000140: dbad 593e 3ceb 103e df17 813d a14d d1bc
00000150: 93b9 183d 3fb7 9a3d 3bb9 3ebe aac9 3abc
00000160: a5be f2bd 4957 8f3c fb93 af3d 4539 b2be
00000170: 0b44 15bd 2f6f 013e fd06 bbbc abfc 54bc
00000180: 287e c93c 63f0 ee3d b39c 65bd 7745 db3d
00000190: 425c 91be bf4b 0d3e f594 a8bd 2894 1cbe
000001a0: 6e01 273d 8f58 a33e 26a6 0abe 3f04 873e
000001b0: 1928 2a3e 4679 51be 2b53 fcbd e087 863d
000001c0: 0b59 033c 8c91 1b3d ff37 0fbc e0ad 1f3c
000001d0: 23a7 45bd 6013 473d c44e cf3c 1fe4 f23c
000001e0: 7131 d53d 2074 aa3c 5201 803c 2f5d ca3d
000001f0: 37a5 3fbc fda5 bf3b 28c7 033d d42a 9e3c
00000200: fd17 2f3e 35ef 18be c95b 0dbe 5e60 4fbd
00000210: 58d3 783e 95a2 083e 04bd 673e 52c1 75bb
00000220: f92d 763d 911f 82be df11 8dbc 5ce1 6d3e
00000230: 265f 253d 2335 4abe 8b5a 0cbd 4a91 4e3c
00000240: b456 abbc 9e0a acbc 4e83 a9bd 789c 59be
00000250: 9290 57bd 0ad7 c5bc 4229 1f3e 4ed8 32be
00000260: 62d7 29bd 6680 5d3e 0255 063e 51f6 b93b
00000270: 9406 5abd 4e82 08be fbcc 153d 47cd 073d
00000280: 0ad6 423e 565e f13d 5fdd 6cbe 9f0a b83d
00000290: 7f3f 95bd 47f6 9abd 0548 1c3e e3a8 bd3d
000002a0: f7c0 593e 8119 943d c2cd acbd 8d3d 29be
000002b0: db83 683c 0375 59bd 25b0 2b3d 7b37 02be
000002c0: 5f4b 283e 437b a73d c4e8 93bd dbba 3ebe
000002d0: c92e 943e 926b 2dbe 063f 5d3e 2f50 adbd
000002e0: 44ec b83a 835b fa3c 44fd 113e 8b29 dbbc
000002f0: f1bd 333e 3288 ea3d 0b15 f13d d224 a8bc
00000300: e573 1b3d df6d a63c 58ad 453e aa21 f8bc
00000310: c656 b3bd 4082 cfbd 83e4 883c 30f6 f53d
00000320: d6ac 51be eb0d 8d3d 9fe6 39be eab7 8f3e
00000330: 3cbf babd ee07 863d 4da7 a23d 2ec3 fd3d
00000340: 6ddf a83d 50b4 b7bd 49f5 7e3c 95ec 4ebd
00000350: 8992 14be a5b2 f83d 3e18 0bbd 3b34 83bd
00000360: 3b3f 863c 5821 d83c a6a0 49bd 18f5 6dbe
00000370: 39bf 953d b7f9 8f3e a421 043e 4747 193e
00000380: 9ffc ca3d 2e2c 953d 7d3b cdbc 4524 68be
00000390: 576b d43d 0954 47be d65f 22be 0889 f43d
000003a0: 75da 9cbe e4b6 6cbe c0b1 01ba caa7 51be
000003b0: 6145 fd3d 31c6 5fbd 1a22 3a3d 35ab 0c3c
000003c0: cf01 b3bd d2ce a43d 9d9c 22be 5d10 ebbd
000003d0: 4cff b73d 4fd3 bdbd f225 ed3c dd4e ed3d
000003e0: a901 e5bd 187b 803e cd32 72be 5274 193d
000003f0: 267f bd3d 93da 343d 85d8 873c f9ff 463e
0.25946477 0.22560476 -0.048631273 0.004339245 -0.16009386 -0.03537903 -0.023788095 -0.05453597
-0.062082183 -0.028291076 0.257239 -0.20649125 0.112420514 -0.06701541 -0.033638634 0.17589699
0.18497658 -0.020579074 -0.033289813 0.11335065 -0.04697756 0.098895535 0.0010453846 0.107875615
-0.0032219915 -0.10286579 -0.1400968 -0.10555767 0.13631383 -0.16017684 0.13384767 -0.05833829
-0.17999277 -0.32213607 0.20762403 0.13795014 -0.07545494 -0.14171533 -0.035996255 -0.08864479
0.07283135 -0.0076122847 0.12115351 -0.24110718 0.18177506 0.03566524 0.14928305 0.044663884
0.020639507 0.22771414 -0.122753896 -0.144482 0.07139381 -0.28793672 -0.07746027 -0.09135781
0.12767252 -0.094518214 -0.03069412 -0.024054365 -0.28092843 -0.047774773 -0.0075183194 -0.131268
0.011704639 0.22349244 0.03888461 0.012580459 -0.17252724 0.011317284 -0.10890851 -0.0077798637
-0.0057217525 -0.07268295 -0.18342182 0.044664223 0.22261943 0.19697103 -0.088221945 -0.032741673
0.21257727 0.14152235 0.06303381 -0.025549712 0.037286352 0.07554483 -0.18625347 -0.0114006195
-0.11852769 0.017497675 0.08573147 -0.34809318 -0.036441844 0.1264007 -0.02283048 -0.012999694
0.024596289 0.11666944 -0.056057643 0.10706609 -0.283907 0.13798426 -0.08231536 -0.15290892
0.040772848 0.31903502 -0.13539943 0.26370427 0.16616859 -0.20456418 -0.123205505 0.06568885
0.008016835 0.0379806 -0.008741378 0.009746045 -0.048255097 0.04860246 0.025306113 0.029649792
0.10409821 0.020807326 0.01562563 0.098810546 -0.011697105 0.0058486448 0.032172352 0.019307531
0.17098995 -0.14935 -0.13804545 -0.050629012 0.24299371 0.1334327 0.22630697 -0.003749926
0.060102437 -0.25414708 -0.017220436 0.23230499 0.040373944 -0.19746833 -0.034266036 0.012607882
-0.020915367 -0.021001156 -0.082769975 -0.21251094 -0.052628107 -0.02415039 0.15543082 -0.17465326
-0.04146517 0.21631011 0.13118365 0.005675115 -0.05322893 -0.13330957 0.036572438 0.033154752
0.19026962 0.11785571 -0.23131321 0.08986401 -0.072875015 -0.07566505 0.15261848 0.09260728
0.21265016 0.07231427 -0.08437683 -0.16527386 0.014191593 -0.053090107 0.04191603 -0.12716477
0.16435002 0.08177807 -0.07222131 -0.18625967 0.28941944 -0.16935566 0.21606073 -0.084625594
0.0014108499 0.030561214 0.1425677 -0.026753208 0.17552926 0.114517584 0.11771592 -0.02052537
0.037952323 0.020316062 0.19304407 -0.03028949 -0.08756785 -0.10132265 0.016710525 0.12009847
-0.20476088 0.0688742 -0.18154381 0.28070003 -0.09118506 0.06544481 0.07942066 0.12390743
0.0824574 -0.08969939 0.01556141 -0.05051859 -0.14509024 0.12143449 -0.033958666 -0.064064465
0.016387573 0.026383087 -0.049225472 -0.23238027 0.073118635 0.28120205 0.12903458 0.14968596
0.09911465 0.07283817 -0.02505278 -0.22670086 0.10372036 -0.1946565 -0.15856871 0.11940199
-0.3063542 -0.23116642 -0.0004947446 -0.20474163 0.123667486 -0.05463237 0.045442678 0.008585741
-0.08740579 0.0804726 -0.15880056 -0.114777304 0.08984241 -0.092688195 0.028948758 0.115873076
-0.11181957 0.25093913 -0.23652191 0.037464447 0.09252767 0.04415376 0.016582737 0.19433583

conditions_processor.0.bias f4 [16]
00000000: d4eb 8739 cee1 9839 dc45 33ba e535 0439
00000010: 3c6f f7b8 efae 06ba 4c15 0a3a f0a6 a13a
00000020: e83c 033b c299 003a 22a5 d5b9 3678 76b9
00000030: 30c1 fcb7 7a96 bdb9 aa13 b2ba c0aa 98b9
0.00025924912 0.00029159937 -0.0006838718 0.00012608578 -0.00011798597 -0.00051377615 0.00052674557 0.0012333076
0.0020025317 0.0004905724 -0.0004074956 -0.0002350517 -3.01307e-05 -0.00036161003 -0.0013586183 -0.00029118918

conditions_processor.1.weight f4 [16]
00000000: bb10 413f f483 773f fbc0 8a3f 8cb1 6e3f
00000010: a677 5a3f 3506 3f3f 2240 7e3f 08ef 793f
00000020: 2ad6 8d3f 99db 733f 133c 623f 566d 6d3f
00000030: 5dcd 453f 4803 723f f7c0 633f 252d 7d3f
0.75416154 0.9668572 1.0840143 0.93239665 0.8533882 0.74618846 0.9931661 0.9763036
1.1080983 0.95256954 0.88372916 0.9274496 0.77266484 0.94536257 0.88966316 0.9889701

conditions_processor.1.bias f4 [16]
00000000: 0c5e 20bf eab7 1abe 0eaa f8be 210b e8be
00000010: da6f ddbe 0267 18bf 6ef7 54be 8f31 63be
00000020: 02c9 9bbe 559c a1be 61ce ddbd b8ea 49be
00000030: ca20 0cbf 68d1 41be 2e42 dcbe c831 243d
-0.62643504 -0.1510922 -0.4856724 -0.4532099 -0.43249398 -0.5953218 -0.20797512 -0.22186874
-0.30426794 -0.31564584 -0.10830379 -0.19718444 -0.5473753 -0.18927538 -0.4301924 0.040086538

conditions_processor.1.running_mean f4 [16]
00000000: d39b fd3e 98b7 58bf 6455 0fbe 721e 57be
00000010: eb5e 9c3d 38ac 213f f49c 823f 7930 5bbf
00000020: 7ec9 663d 41e8 7f3f 6a73 c33d 9062 cdbd
00000030: f51d 4b3c 9bfd cfbf 2d21 853e efb0 d4bf
0.49532947 -0.8465514 -0.13997418 -0.21007708 0.07635292 0.6315341 1.0204148 -0.8562084
0.0563445 0.99963766 0.09543498 -0.10028565 0.012397279 -1.6249269 0.26001874 -1.6616496

conditions_processor.1.running_var f4 [16]
00000000: 4af8 b23e 1d1d f83e 93bc 963e 4848 843e
00000010: 6150 903e 5099 b73e f1b4 0e3f d66c bb3e
00000020: 99b2 533e a1e4 293f 200b 803e 0375 753f
00000030: 8f9b 933e 8338 8c3f b693 833e 524a 8f3f
0.34955055 0.48459712 0.29440746 0.25836396 0.28186324 0.35859156 0.55744845 0.36606473
0.20673598 0.66364485 0.25008488 0.9588167 0.2882962 1.0954746 0.25698632 1.1194556

middle_layer.0.weight f4 [32, 32]
00000000: 4b44 c93c a7ae 623c ed63 a9bc 0faf 053c
00000010: 3499 49be 0cb9 43be 2e76 41be 6aca b93b
00000020: c886 ac3c 79d3 dc3c 0080 75be 84c8 b83b
00000030: d3b3 10be 1761 153e f230 3bbe 81fa bdba
00000040: 068d 01be b8e6 04bd e482 183e ce14 953d
00000050: cf7c e23c 72cb 9a3d dbd4 6ebd c65e 813d
00000060: 1c2b a73e b882 f3bc 2376 7ebe a6ea c63c
00000070: 62df b93d aaae b1bd 8b96 a1be 01ad 89bd
00000080: 7be1 8f3d 998f acbe bb87 9f3d 030d 833d
00000090: 5435 3fbd 8cd4 ad3c f761 3fbb 6bf2 983d
000000a0: 6d61 993d 8554 ba3b 3fbf 353e a061 c43d
000000b0: 8eba a43d 3766 a6bd bfb0 6e3d 0d13 cf3c
000000c0: 27d2 4dbe b79f ff3c 137e febc 3ae5 b63d
000000d0: fc43 2fbe 1455 923d 8c1b 60bc f286 e2be
000000e0: 723b 02bd cbf8 f9ba 9155 d23c 9751 0a3c
000000f0: 9bcc 80bc fed9 4b3d 045c febd 2167 0c3d
00000100: df3e 70be 6b43 e0bd 0e02 063e 571e 153e
00000110: 6600 fb3c 2c37 22bd f696 113d eeca 2b3e
00000120: 8248 acbd 72e6 be3c bd35 293e 0aeb 0ebe
00000130: 0090 0d3c 0da1 e73d 2604 093d a9a1 9c3d
00000140: c96e 2bbe d7c0 1e3d 35b9 c6b9 3674 c0bc
00000150: 6862 a7bd afce 8c3d 742e 17bd 3875 c33d
00000160: 7cd4 71bd bcb2 dd3c e8c9 c33c de4d 8abb
00000170: 5ef1 19b6 67e4 b73d 8266 10be a24c aabe
00000180: 09a3 ca3b 46d4 dd3c 835f bf3c 2945 c93c
00000190: 6ec6 3dbe 3898 52be f114 a0be 0905 6a3c
000001a0: 9c32 f5be fd4c 373c eebc 08be 7588 2c3b
000001b0: 8fad 79bd b7b5 1ebe 7111 9cbd 8e9b a83c
000001c0: 92a0 ffbd fdf3 57be fce6 f43d 2dd4 4a3d
000001d0: bd60 fbbb 3540 8f3d c0ec ecbb 3c1b 8f3c
000001e0: b89a 443e 58ba 87bd 8ad4 123d 741d 3cbe
000001f0: 4c07 7c3c a3ba 5cbd 12e5 77bd 1115 06bd
00000200: 9e9d 3d3d 936a 513d 3cd9 4e3a 0505 513d
00000210: c6e7 63be 42c5 b5be 9495 7dbe 0d0c 9a3d
00000220: a428 7cbc 2c7e 5dbc 8290 d3bd 47ad 4d3d
00000230: feeb 44be de5c d33c 937b 2dbe 9573 1b3d
00000240: 6d2f 7ebd cc15 a23d 2510 ffbd 3410 933d
00000250: 45b5 a03d 8575 d43d 6bfb 29bd 486e ab3d
00000260: 77b2 3abe 444d 9cbc a97b c4bd f29c d6bd
00000270: 163a 1f3d f9d5 f73d 521a a53d 6361 fa3d
00000280: b12d aabd c613 5abd f3b2 b6bd 68bd a23e
00000290: 9dfa ba3b 685f d3bb 8af0 e9ba 9d59 89bd
000002a0: 4832 e0ba 3d89 44bd 613a b6bc 0f13 bebd
000002b0: 7c00 893c a48d 18bd 6c47 c63c 7974 a5bd
000002c0: 6ef9 523c 3f05 c83c 87d3 2e3d 5cdb aabd
000002d0: 0948 eebc 1e98 ad3c e0e3 8abb 26fa 463c
000002e0: 088d 753e 5033 023d 1cc7 a83d 9762 c93c
000002f0: 0b8e e1bd a638 a9bd 245f aaba 26ce 023e
00000300: 858d 3a3d 7704 5d3d 0191 753d 3d56 2d3d
00000310: 7983 56be eaac 83be a3d3 c4be e516 853d
00000320: 23ba 86be 52af 293d 049f ccbd b4a1 2c3d
00000330: 9e99 d0bd 402c 07be 3dcb c3bd a42d 473d
00000340: 26a6 acbd 257a b03d f713 1bbe 4e46 9e3d
00000350: e0c6 843d be64 c33d 4977 8c3c e1f3 0f3d
00000360: e9ac 29be 199a 3b3d 5a24 a9bd 73a9 213d
00000370: 7786 96bc e3f5 313d 9861 5f3d 7503 8b3c
00000380: 3442 1b3c f89a b53b 9439 773b 537d fcbb
00000390: 309c e13d 7af6 973a 9c5a 893d d5d6 7b3c
000003a0: ae0a 81bd 2d3a 9b3c 68a4 11bf 523b 013c
000003b0: 05c0 adbd 3896 10bd 2ba6 20be c7d3 673c
000003c0: 0832 6fbd dfd2 1dbc 2fcd 3d3e 6e11 fc3c
000003d0: cf82 80bd e90d 013e 32ad b6bc 3157 0cbd
000003e0: 4a49 8abe 808a 96bc 5dcf 07be ad29 50bd
000003f0: ab30 b53d e238 afbd 4a40 45bd 0dd9 e1bc
0.024568697 0.013835586 -0.020677531 0.008159413 -0.19687349 -0.19113559 -0.18892738 0.0056698816
0.021060362 0.026956307 -0.2397461 0.0056391377 -0.14131097 0.14587818 -0.1828039 -0.0014494212
-0.12651452 -0.032446593 0.14893681 0.07279359 0.027647404 0.07558335 -0.058308464 0.06316905
0.32650077 -0.029725417 -0.24849753 0.024281811 0.0907581 -0.08675893 -0.31560168 -0.06722451
0.07025429 -0.33703306 0.077895604 0.06398966 -0.046681717 0.021219514 -0.0029202679 0.074681126
0.074892856 0.005686345 0.17748736 0.09588933 0.08043395 -0.08124965 0.058274027 0.025277639
-0.20099698 0.031204088 -0.031065976 0.0893044 -0.17115778 0.071451336 -0.013678443 -0.4424358
-0.031794973 -0.0019071338 0.025675567 0.008442304 -0.015722563 0.04976844 -0.12419894 0.03427804
-0.23461483 -0.10950359 0.13086721 0.14562355 0.030639838 -0.039603397 0.03554436 0.1677663
-0.08412267 0.023303244 0.16524406 -0.13956848 0.008640289 0.11310015 0.033451222 0.07648022
-0.1674148 0.038758125 -0.00037903493 -0.023492914 -0.081730664 0.06875359 -0.036909536 0.09543842
-0.05904053 0.027062766 0.023899987 -0.0042207083 -2.293927e-06 0.08979111 -0.14101604 -0.3326159
0.006183986 0.027078759 0.023360973 0.024569111 -0.18532726 -0.2056588 -0.31265977 0.014283427
-0.47890174 0.011187789 -0.13353321 0.0026326452 -0.060956534 -0.15499006 -0.07620514 0.020581987
-0.12481798 -0.21089168 0.11958119 0.049518753 -0.007671444 0.069946684 -0.0072303712 0.017469041
0.19199646 -0.06627339 0.035847224 -0.1837061 0.015382599 -0.05388893 -0.060521193 -0.032734934
0.046292894 0.051127028 0.0007890647 0.051030178 -0.22256383 -0.35502058 -0.24764091 0.0752183
-0.015390549 -0.013518851 -0.10330297 0.05021408 -0.19230649 0.025801118 -0.16941671 0.037952024
-0.062056947 0.07914314 -0.12454251 0.07180825 0.078470744 0.103739776 -0.041499536 0.08370644
-0.18232141 -0.019079812 -0.09593899 -0.10479154 0.038873754 0.12101359 0.08061661 0.12225606
-0.08309496 -0.053241514 -0.089208506 0.3178513 0.005706145 -0.0064505823 -0.0017848175 -0.067065455
-0.0017104829 -0.047982443 -0.022244634 -0.09280979 0.016723864 -0.037244454 0.024203978 -0.08078856
0.0128768515 0.024416564 0.042682197 -0.08342621 -0.029087083 0.0211907 -0.0042385906 0.012144601
0.2397958 0.031787217 0.08241102 0.024583144 -0.11013421 -0.08262758 -0.0012998325 0.12773952
0.04554512 0.053959336 0.05995274 0.04231857 -0.2094859 -0.2571786 -0.38442716 0.064985074
-0.26313886 0.041426964 -0.09991267 0.0421464 -0.1018555 -0.13200474 -0.09560249 0.04862751
-0.08430128 0.08617047 -0.15144335 0.07728253 0.06483245 0.095406994 0.017146723 0.03514469
-0.16569866 0.045801256 -0.08258887 0.03946824 -0.018374665 0.043447386 0.054536432 0.016969422
0.009476233 0.0055421554 0.0037723528 -0.0077053695 0.110161185 0.0011593841 0.067067355 0.015371044
-0.06300865 0.018948639 -0.5689149 0.007887678 -0.084838904 -0.03529951 -0.15688388 0.014149613
-0.058397323 -0.009632795 0.18535303 0.03077003 -0.0627495 0.12602963 -0.022299383 -0.03426284
-0.2700904 -0.018376589 -0.13262697 -0.050820995 0.08847173 -0.085557714 -0.048157014 -0.027569318

middle_layer.0.bias f4 [32]
00000000: 2c9e 843a 78de bf3a 96e6 df3a 9973 5839
00000010: 5328 0d39 c9ce 34b8 306b 1d3a 21c4 3839
00000020: f6bc 04b7 9aee a43a e376 143b 47c4 a439
00000030: 3594 35b9 0458 aa38 64d2 e53a b0ce 8e3a
00000040: 7b68 853a c23a 333a ad77 e239 83a4 aa37
00000050: 7881 be3a 4976 8a3a 4802 8b3a 3edb e93a
00000060: 91a1 543a 2c0a 923a 2301 a4b8 167e cc3a
00000070: 644e 0b3b 29a8 48bb 1e9b fa39 5007 b03a
0.001011794 0.0014638444 0.001708227 0.00020642429 0.0001346183 -4.3107928e-05 0.0006005047 0.00017620671
-7.911809e-06 0.0012583316 0.002265387 0.00031426756 -0.00017316717 8.122626e-05 0.0017534015 0.0010895338
0.0010178232 0.00068370637 0.00043195245 2.0342186e-05 0.0014534434 0.0010563816 0.0010605538 0.0017841829
0.00081112335 0.0011141947 -7.820341e-05 0.0015601541 0.0021256441 -0.003061781 0.00047799287 0.0013429914

middle_layer.1.weight f4 [32]
00000000: fbd5 c43f 196d df3f 8e8f d13f 30e7 c93f
00000010: 200a c83f 2d2f d13f 8023 d13f 18d3 c93f
00000020: c3e5 bc3f 7b23 be3f c79a cc3f 29e4 bf3f
00000030: 39dc c53f 307d c83f 6f71 c53f 3aa8 d13f
00000040: 6633 c03f 89c6 cd3f 8f7a c03f d5ec c33f
00000050: ddf6 d73f c1e7 c63f e6ab ba3f 77a5 c73f
00000060: 15cc cb3f a508 b83f 64b8 c23f 7949 cb3f
00000070: c872 cb3f 451a d53f ef96 c03f aa8e cd3f
1.5377802 1.7455169 1.6371934 1.5773678 1.562809 1.6342522 1.6338959 1.5767546
1.4757618 1.4854578 1.5984734 1.4991504 1.5457832 1.5663204 1.5425242 1.6379464
1.5015686 1.6076213 1.5037402 1.530665 1.6872212 1.5539476 1.4583709 1.5597371
1.5921656 1.4377638 1.5212522 1.5881797 1.5894403 1.6648642 1.5046061 1.6059163

middle_layer.1.bias f4 [32]
00000000: a500 193f 58d5 fa3e bf1e 013f 4752 ca3e
00000010: ff7d f23e fc5f 313f de9d e83e 51f1 203f
00000020: 8131 2b3f 3120 123f 503c 333f 4422 0c3f
00000030: 0852 1f3f 4495 e83e 8a97 4b3f af13 0c3f
00000040: 9f02 183f 1167 e23e 4c6b 173f 9f58 2b3f
00000050: 0267 f13e 9d1a 1b3f 451e 0c3f fc79 d83e
00000060: 6844 433f 2380 0e3f 3bba 153f 5645 113f
00000070: 89a2 a93e c351 f13e 4cc8 133f 429c b93e
0.5976661 0.48990893 0.5043754 0.39515898 0.47361752 0.69287086 0.45432943 0.6286822
0.6687241 0.5708037 0.70013905 0.54739785 0.62234545 0.4542638 0.79528105 0.54717535
0.59379 0.44219258 0.591481 0.669321 0.471489 0.60587484 0.5473369 0.42280567
0.76276255 0.5566427 0.5848729 0.56746423 0.33131817 0.47132692 0.57727504 0.36252028

middle_layer.1.running_mean f4 [32]
00000000: 4fdf a8be a3a5 6cbd 3138 04bd 3b84 0ebf
00000010: 35c3 9fbe 4ef7 ca3d 0c66 cdbe f71c cebe
00000020: 99b8 02bf 168e 8abd d5ed acbd c87d bbbc
00000030: d81c 16be 106a b6be 1dde 9bbe bba8 243d
00000040: 46f1 22be 38ff ecbd 4305 96bc 8b2a 9bbe
00000050: 6943 0bbf da4e 5b3d bad5 cfbe ec5b d1be
00000060: 52df 0cbd bead 85be 098b 963d b1d2 25be
00000070: 411b c6be 7394 e63d a4fb 88be 819b 18bf
-0.3298287 -0.05777515 -0.03228015 -0.5567052 -0.3120362 0.09910451 -0.40116918 -0.40256473
-0.51062924 -0.06765382 -0.084438 -0.022887126 -0.1465944 -0.35627794 -0.30442896 0.040199976
-0.15912351 -0.115721166 -0.018313056 -0.30305895 -0.54399735 0.053541996 -0.40592748 -0.40890443
-0.034392662 -0.26109117 0.073507376 -0.16193654 -0.38692668 0.11258783 -0.26754487 -0.5961228

middle_layer.1.running_var f4 [32]
00000000: 3221 013f 5c47 6b3e 54c5 4e3e 320e 583f
00000010: 4f08 4c3f 28eb ff3d a841 653f 8b8c c93e
00000020: 1932 c83e fd5f c93e 9f24 9f3d e609 d13e
00000030: 5a0e f13e 5190 8b3f 4e51 1d3e 42a9 8a3e
00000040: 3d95 023f 8aa4 603e efad 263f cd07 513e
00000050: 8cc4 7e3f de2c 2e3e 8e33 e43e 73e6 d23e
00000060: de07 e73d 2dc9 0d3f 4a98 073f be38 5a3e
00000070: 2a98 f73e 6d89 0c3e f33a 4a3e dcd2 973f
0.5044128 0.2297644 0.20192462 0.8439666 0.7970018 0.12496024 0.8955331 0.39365038
0.3910072 0.39331046 0.07770657 0.40827864 0.47081262 1.0903417 0.15363047 0.27082258
0.5100897 0.21937767 0.6510915 0.20413132 0.99518657 0.17009303 0.44570583 0.41191444
0.112807974 0.55385095 0.5296675 0.21310708 0.4835828 0.13724299 0.1974905 1.1861224

output_layer.weight f4 [1, 32]
00000000: 5bbd ff3e ed62 243f fc40 0c3f 859c 223f
00000010: 02b7 0f3f 29c2 153f b110 023f 1364 093f
00000020: ccc2 003f b9a4 e93e f357 213f e695 153f
00000030: 2a0c fb3e 7564 0a3f f2a1 153f 92ae 213f
00000040: 205e 1d3f 0165 1d3f 2729 fe3e d3d8 393f
00000050: a723 f73e 91f0 053f 4f8c 1e3f 1bcf 293f
00000060: 807d 1e3f 5ed5 183f b058 083f 6ba3 eb3e
00000070: 8cad 223f 9ac0 143f c006 193f 130c 2f3f
0.49949154 0.6421345 0.5478666 0.6352008 0.5613862 0.5849939 0.5080672 0.53668326
0.50297236 0.45633486 0.63024825 0.5843185 0.49032718 0.54059535 0.58450234 0.63157
0.6147175 0.61482245 0.49640772 0.7259647 0.48269388 0.523202 0.61932844 0.6633164
0.6191025 0.5970057 0.53260326 0.46023116 0.6354606 0.58106387 0.59775925 0.683778
