api/pricePrediction.pt (torch, 12520 bytes, 7 tensors)

scalar_processor.weight f4 [10, 2]
00000000: 928b ba3e c6cb 9fbe e85e 0cbe 02ee a93e
00000010: 146b 2abf ee1e d93e 08f6 14be 5a2f b83e
00000020: 7051 c93d 7051 b1bd acd4 483e 50e1 0e3d
00000030: 0a3a 843e 3b16 8dbe 902a 53bd a05f 82bd
00000040: b8e6 d13d 0020 39bb b73d 1e3f 6453 613e
0.3643461 -0.31210154 -0.13708079 0.33189398 -0.6656964 0.4240641 -0.14546978 0.35973626
0.09829986 -0.08658111 0.19612378 0.034882843 0.2582553 -0.27556023 -0.051554263 -0.06365895
0.10249084 -0.0028247833 0.6181292 0.22004467

scalar_processor.bias f4 [10]
00000000: 51d3 86be 49a8 dabe c0bb f2bd 7929 9cbe
00000010: 8e07 68be 10ae 0a3d 42d2 d73e 02c8 c43e
00000020: a3f4 30bf 6a6f e03e
-0.26333097 -0.42706516 -0.11852217 -0.3050039 -0.22659132 0.033857405 0.421526 0.38433844
-0.69123286 0.43835002

sequence_processor.weight f4 [20, 100]
00000000: dcda e43c a143 c23d 252e 873d db99 babd
00000010: bfb9 c2bd 3090 45bd 59d6 b33d 0c74 88bc
00000020: ce4a 2f3d 8758 3ebd 15f4 c83d 174d 2dbd
00000030: a995 993d 0036 9b3a d0c8 57bd 5e8a 523d
00000040: 876c 59bd 3cee f03c c88c ecbc 00a0 33bc
00000050: 6de4 c4bd 304a 43bd 4e43 5e3d 0021 c7bc
00000060: affd cb3d 512a a43d 806e 99bb 56b3 88bd
00000070: 526e 793d 9c3e fe3c 0463 84bd d906 853d
00000080: 3eab 783d d7a2 b53d f09a 65bd 60d8 86bc
00000090: 40e9 fdba f04c 6f3c 2d6d 9bbd a654 91bd
000000a0: 02d3 5e3d 8818 c0bc 2614 483d 60cf ba3b
000000b0: 727d 063d 0022 b43c 2aee 143d 0a0b 4b3d
000000c0: f2aa bdbd 3a2c 4e3d e8ff 8fbd 0086 9abd
000000d0: d046 c73b f898 8bbc 6291 703d c736 6dbd
000000e0: 4210 b6bd 0b0c 953d e8f1 72bc ea61 663d
000000f0: 1aae 033d 1093 99bd 6c93 a43c e0c4 c43c
00000100: 2820 89bd 0758 42bd e2a9 0b3d b8bc 923c
00000110: 8d3b 2ebd 20fc f7bc a192 bb3d c891 97bc
00000120: d6ed 663d ae5b 313d 5a62 84bd 002b aebd
00000130: d195 c43d a01a ab3b bf61 8c3d 94c3 a93c
00000140: 96bc 033d 25fa 983d c131 c23d c2e6 87bd
00000150: f0d8 4c3c 61d5 983d 435d 943d 9275 7e3d
00000160: b637 94bd 337a 93bd e7b6 77bd 58d4 4d3c
00000170: f11d cc3d fe5d 81bd 9e44 5a3d 70b5 62bd
00000180: 628e c0bd cc1c aebc e6ff 6b3d 9521 be3d
00000190: a360 7ebd 8cc6 b13c b9b6 b03d 21b6 873d
000001a0: ae45 7f3d 9d89 913d 138a 813d ac98 d33c
000001b0: de0b 8cbd 88fb abbd eaaf 3bbd f0c8 3ebc
000001c0: b310 7bbd 8ada 153d 4c88 fd3c ec7e b9bc
000001d0: 0e6d 1d3d 6260 043d a613 7a3d d9eb 893d
000001e0: 50b6 0abd 4918 c83d 6869 3dbc c027 61bb
000001f0: 804e c1bd 06d0 83bd 2d4a 6fbd 0032 2fbd
00000200: 499b 913d 7ad9 05bd 0e0b 99bd f297 1d3d
00000210: 3624 033d a5a5 843d e3f4 53bd 689d b13c
00000220: 7a1d 15bd b40d b8bc 7a35 a3bd 00ae 3abd
00000230: e8e2 fabc d228 2f3d c0a8 953c 185b ca3c
00000240: 7569 cc3d 8d9a c73d e9ae 8b3d a0b0 503b
00000250: cbad 8dbd 9d0d a03d 18da ccbc 0075 04bc
00000260: 5b6f b0bd c0d0 a1bc f017 84bd 2331 bc3d
00000270: cd0d b1bd 58a3 9fbd 4089 5ebb 207a 5dbd
00000280: 468f 123d 60aa 1dbd 5062 40bd 2097 b93b
00000290: 1941 943d aa0f 90bd ca59 403d 6f92 833d
000002a0: b555 c83d 8a58 8fbd e866 c63c 436f 97bd
000002b0: 19d9 ae3d ede2 1ebd 42b9 763d 401c 433b
000002c0: b034 ffbb 601c 51bb 6c42 8b3c 7615 413d
000002d0: 1862 833c a4e6 f93c 0039 b8bd 5934 953d
000002e0: c98e b23d f349 a93d 8f64 973d 45ca 93bd
000002f0: b6d6 17bd cd93 b43d d8fc 9bbd 85cc b93d
00000300: 0b13 a1bd 4b43 90bd 923e 483d 8525 93bd
00000310: e8ad bbbc 87fd 943d 4538 a23d d7b0 c13d
00000320: e03a a6bc da2e 9fbd f9a5 c93d d482 aebc
00000330: 1a86 28bd 14b3 c73c be38 8fbd 699c 863d
00000340: d95a 803d 4581 a2bd 9237 a8bd 9884 0fbc
00000350: de0a 2c3d 60ce 3dbb f0b2 4fbd c0d4 153b
00000360: 857f c0bd a2be 90bd 4c55 88bd b5a8 a83d
00000370: 4b88 b43d a420 0bbd 30f7 923b 2eac 363d
00000380: 104f 443c b71b 4dbd 663b 6c3d 8ecb 7b3d
00000390: a0e8 bdbb f0b0 49bc 6b1c ba3d 8705 b33d
000003a0: fa3b 68bd b15f c83d c0ba ca3c 660a 88bd
000003b0: 5e38 603d 02e6 98bd 7938 bd3d 62a9 83bd
000003c0: 54b1 e73c 5472 f93c 6cda c23c 9ddd a93d
000003d0: 8d20 2abd c3eb 2cbd 4d79 b1bd a07a 86bb
000003e0: 3309 42bd 804c 833b 4cef a7bc 16e7 073d
000003f0: e92a b13d 64ba f13c daf2 03bd 3afd 48bd
0.027936392 0.094855554 0.06600598 -0.09111377 -0.095080845 -0.04823321 0.08781118 -0.016656898
0.04279595 -0.046471145 0.0981218 -0.042309847 0.074992485 0.0011841655 -0.052681744 0.05140149
-0.053082015 0.029410474 -0.028875723 -0.01096344 -0.09613881 -0.047678173 0.054263406 -0.024307728
0.09960496 0.08015884 -0.004682362 -0.066748306 0.060896225 0.031035714 -0.06464198 0.06495447
0.060710184 0.0886895 -0.056055963 -0.016460598 -0.0019371882 0.014605746 -0.07589183 -0.070962235
0.05440045 -0.023449197 0.04884734 0.0057009906 0.032834478 0.021988869 0.036359943 0.049571075
-0.09261121 0.050335146 -0.07031232 -0.0754509 0.0060814396 -0.017040715 0.058732398 -0.057913568
-0.0888982 0.07277688 -0.014828183 0.056245722 0.032148458 -0.07498753 0.020089827 0.024019659
-0.066955864 -0.04744723 0.03409756 0.017912254 -0.04253726 -0.03027159 0.091588266 -0.018502131
0.05637916 0.043300323 -0.064640716 -0.08504295 0.09598888 0.00522168 0.06854581 0.020723142
0.03216227 0.07469586 0.09482146 -0.066358104 0.012502894 0.07462574 0.07244351 0.062123843
-0.072371885 -0.07201042 -0.060477164 0.012562834 0.09966648 -0.06316756 0.053288095 -0.055348814
-0.09402157 -0.021253966 0.05761709 0.09283749 -0.06210388 0.02170112 0.086286016 0.06626535
0.06232231 0.07106326 0.06325164 0.025829636 -0.06838201 -0.08397585 -0.04582206 -0.011644587
-0.061295222 0.03658537 0.03094878 -0.022643529 0.03843408 0.03231848 0.061053894 0.067344375
-0.033865273 0.09770257 -0.011560775 -0.0034355968 -0.09438801 -0.06436162 -0.05842035 -0.042772293
0.071096964 -0.032678105 -0.07472812 0.038474984 0.032016955 0.06476907 -0.051747214 0.021681502
-0.036405064 -0.022467472 -0.07969184 -0.045576096 -0.030625775 0.04276354 0.018268943 0.02470164
0.09981052 0.09746275 0.06820471 0.0031843558 -0.06917914 0.078150965 -0.025006339 -0.008084536
-0.08614989 -0.01975286 -0.06449878 0.091890596 -0.086452104 -0.07794827 -0.003395632 -0.054071546
0.035781167 -0.03849256 -0.046968758 0.0056637675 0.07238979 -0.07034238 0.04696063 0.06424414
0.09781972 -0.06999309 0.024218991 -0.07394268 0.08537502 -0.038790632 0.06023527 0.0029771477
-0.0077882633 -0.0031907782 0.016999446 0.047139607 0.016037986 0.030505486 -0.08995247 0.07285375
0.0871864 0.08266058 0.07392227 -0.07216314 -0.03707 0.08817253 -0.076165855 0.09072212
-0.0786496 -0.07044085 0.048887797 -0.07184891 -0.022910073 0.07274919 0.07920889 0.09457558
-0.020291746 -0.07772608 0.0984611 -0.021302618 -0.041143514 0.024377383 -0.069932446 0.065728016
0.06267328 -0.079348125 -0.08213724 -0.00875964 0.04200255 -0.002896212 -0.050707757 0.0022862405
-0.093993224 -0.0706761 -0.06656894 0.08235303 0.08815058 -0.033966675 0.0044850335 0.044597797
0.011981741 -0.05007526 0.057673834 0.06147342 -0.0057955533 -0.012310252 0.090874515 0.08741289
-0.056697823 0.09783877 0.024747252 -0.06642608 0.054741256 -0.074657455 0.09239287 -0.064287916
0.028282799 0.030450024 0.023785792 0.082942225 -0.04153495 -0.042217027 -0.086657144 -0.0041039735
-0.047372054 0.0040069222 -0.020499848 0.033179365 0.086507626 0.029507823 -0.032214023 -0.04906962

sequence_processor.bias f4 [20]
00000000: 0088 b83a 118b b23d c058 3f3b 737d 5abd
00000010: bd19 b03d 8c03 ce3c 98c2 b0bc b1ba 8f3d
00000020: ade4 a73d bb69 acbd f3e8 a8bd cdb7 86bd
00000030: b31e b0bd d8c7 f5bc aef0 153d 40d2 babd
00000040: eb29 c8bd 9b59 b0bd e3b6 55bd 6b67 803d
0.0014078617 0.08717931 0.0029197186 -0.053342294 0.08598659 0.025148176 -0.021577165 0.070180304
0.08197913 -0.08418604 -0.082475565 -0.06578026 -0.085996054 -0.03000252 0.036606483 -0.09122133
-0.0977362 -0.08610841 -0.052176367 0.062697254

middle_layer.weight f4 [10, 30]
00000000: 7cc1 253e 26ba 393e 8059 023b a157 1ebe
00000010: 5851 363e b257 fbbd 882c 8d3d 20e8 ba3d
00000020: c031 673d 90d1 763d 5067 2ebe 3afc 7bbd
00000030: c080 f0bd 321e 013e cc70 d4bd c01e 8fbb
00000040: 802c 263e 52b4 0d3e c282 06be edf5 1bbe
00000050: aef8 133e 4c38 573d ed55 0fbe 58a7 213e
00000060: 16f8 06be f6d7 213e 8c20 063e 9a39 053e
00000070: 7879 0fbd a8fc 813c 891d 1cbe 4ca4 d23d
00000080: c079 2c3c d670 0a3e cd9e 9dbd 0499 343e
00000090: 9c3d f93d 2c7b 51bd 242c 4c3d ea62 08be
000000a0: 94f2 f8bd ea18 00be b1cb d6bd f0e8 4f3d
000000b0: 0827 a1bd 1b25 81bd c6c9 023e b008 f73c
000000c0: 1c3c b6bd 28f3 4abd 709b 44bd ac8f ae3d
000000d0: 009a 033e 10f9 143e c864 febd 10c8 9fbc
000000e0: c889 2f3d fa21 92bd 54db f53d 1847 a6bc
000000f0: 5099 9f3c 84d5 1fbe 4616 073e d4c2 f7bd
00000100: a0df 8fbb 817d 18be e43b 0e3e 40e6 2c3c
00000110: b063 a83d 7af2 12be 4051 7e3c 7430 993d
00000120: 0807 043e fc65 093e 9883 05bd 08e9 97bc
00000130: 9077 783d 1871 86bd ac26 98bd 1020 2cbe
00000140: 4456 37be 40e2 c4bd c8bc ba3c b01a 713c
00000150: e0fb 6f3c f8fb df3c 801c 0abd 00b5 38be
00000160: 8af1 263e 2ccc 08be 001d 0cbb f890 943d
00000170: c4b5 3f3d 3967 a2bd a977 22be 72b1 153e
00000180: 007c aa3b 3081 2a3e 8c73 ae3d 44bc 9f3d
00000190: 04d1 213d 44a9 28bd 4a24 dbbd 38a1 b53c
000001a0: 40a7 333e 6c29 e03d acd9 293e 6a54 2f3e
000001b0: 8014 123e fcde d1bd 1fa2 cbbd 003d cdbb
000001c0: 2661 c1bd 24e9 4abd 7b15 80bd 4e98 233e
000001d0: 1025 49bc faf7 343e 64f7 10be 7c6a 38be
000001e0: b8d8 d53c 2807 153d 66e2 96bd 7339 bdbd
000001f0: 78fe 543d 20db 153c 385f c8bc d8d2 bd3d
00000200: 9e03 9fbd b60f 133e 58ff febd bd93 c2bd
00000210: 0281 813d f8c9 e53d c080 12bb 75c2 12be
00000220: c0fd eebb 5c78 7cbd 3cf4 6ebd d439 0abd
00000230: d0eb 333d 0013 2ebd 301b 03be 50b1 babd
00000240: 4f98 1cbe a5bd 3abe b8b2 b43d 14ec d03d
00000250: 5a47 0d3e 80cc 6c3c d9cb 99bd c6e2 e0bd
00000260: c83b ba3d 64f8 e1bd eeb6 0b3e e2cb cabd
00000270: fe67 2ebe 50a3 06be 4244 183e 981d 0d3e
00000280: 0c86 363d 0068 8a3b d64c 203e 6ca4 e13d
00000290: c463 dd3d 507d febd d852 ef3c 9262 293e
000002a0: b5b2 03be 9241 3a3e 5fe7 f4bd 78bf 5bbd
000002b0: 100e 0dbc fc87 423d 34d1 653d 64db d5bd
000002c0: 5824 ab3d 30ea 453d f07d a6bc aa12 3abe
000002d0: fc07 393e 0347 8abd 884d c7bd cc20 393e
000002e0: a27b bdbd 20cc f93d 082a e43d cb5f f3bd
000002f0: adc5 16be f545 cbbd 440e 6a3d 785b 303e
00000300: d00c 26bc 685b 5fbd 5423 57bd b833 02be
00000310: 94d5 3a3e c0c4 01bb 63f2 13be cb71 ffbd
00000320: a09e e83d a4da b43d 383a f13d 28ad 9dbc
00000330: 28c1 13bd a405 753d 804d eaba fabf 70bd
00000340: 7056 323d f018 d5bd 6172 01be 884e 25bd
00000350: dc45 05be 80e5 973b 3061 eb3c 800f 373e
00000360: a485 573d 800c 8cba 23e0 07be 0b4b 96bd
00000370: 28d3 f3bc fd9d 06be 1492 113d 368e 063e
00000380: 7cf1 d53d 9712 9bbd d0cf 36bd 7e61 3a3e
00000390: 5079 efbc 6ae8 27be 801f d2ba e015 183c
000003a0: cee8 8abd 185a a2bc e073 18be 3c4a 663d
000003b0: 6abf 01be 3ab1 803d ecdd 0c3e 1e65 f1bd
000003c0: 7c66 92bd a8d9 8f3c 00de e639 043b db3d
000003d0: c055 33bc 80ca f13c 50b6 4ebd 4ca7 763d
000003e0: 2cf1 613d 5887 16be b07e c63d 1841 19bd
000003f0: 6869 273e 9887 39be 5879 94bc d4f3 a83d
0.1618709 0.18137416 0.0019889772 -0.15463115 0.17804468 -0.12272586 0.06893259 0.091263056
0.05644393 0.060258448 -0.17031598 -0.06151984 -0.11743307 0.12609175 -0.10373077 -0.0043676794
0.16227913 0.13838318 -0.13135818 -0.15230532 0.14450333 0.052543923 -0.13997622 0.15786493
-0.13180575 0.15805039 0.13098353 0.13010255 -0.03502795 0.015867546 -0.15245642 0.102852434
0.010527074 0.13519606 -0.076963045 0.17636496 0.12169954 -0.051142856 0.049846783 -0.13318983
-0.12155643 -0.12509504 -0.1048807 0.050759256 -0.07868773 -0.063059054 0.12772283 0.03015551
-0.08898184 -0.049548298 -0.0479998 0.08523497 0.12851715 0.14548135 -0.12421566 -0.019504577
0.042856008 -0.07135387 0.12004724 -0.020297572 0.019482285 -0.15608793 0.1319209 -0.120977074
-0.004390672 -0.14891626 0.13890034 0.010552943 0.08222139 -0.1435031 0.015522301 0.07479945
0.12893307 0.1341781 -0.0325962 -0.018543735 0.0606609 -0.0656454 -0.07429251 -0.16809106
-0.17904001 -0.09613466 0.022795096 0.014715835 0.014647454 0.027341828 -0.033718586 -0.18037796
0.16303077 -0.13359135 -0.002137959 0.07254213 0.046804205 -0.079298444 -0.15865959 0.14618471
0.0052027702 0.16650844 0.085181326 0.07799581 0.039505973 -0.04117705 -0.10700281 0.022171602
0.1754427 0.109454006 0.16586941 0.17122045 0.14265633 -0.10247609 -0.099430315 -0.0062633753
-0.09442358 -0.049538746 -0.06254097 0.15976068 -0.012276903 0.1767272 -0.14156872 -0.1800937
0.026104316 0.036383778 -0.07367401 -0.09239473 0.052000493 0.009146482 -0.024459466 0.09268731
-0.07764362 0.14361462 -0.12451047 -0.09500835 0.063234344 0.11220163 -0.0022354573 -0.14331992
-0.007293433 -0.06163822 -0.05833839 -0.033746555 0.04392606 -0.04249859 -0.1280334 -0.09115851
-0.15292476 -0.18236406 0.088231504 0.10201278 0.1379675 0.0144530535 -0.07509584 -0.109807536
0.090934336 -0.11033705 0.13644001 -0.09902169 -0.17031857 -0.13148236 0.14869788 0.1378082
0.04456143 0.0042238235 0.1565431 0.11017689 0.108100444 -0.12426245 0.029214308 0.16541508
-0.1286114 0.18189076 -0.11958193 -0.053649396 -0.00860931 0.047492966 0.056107715 -0.10442236
0.083565414 0.04831904 -0.020323724 -0.18171182 0.18069452 -0.06751826 -0.09731585 0.18078917
-0.09252097 0.12197137 0.11140829 -0.118835054 -0.14723845 -0.099254526 0.05714251 0.17222393
-0.010134891 -0.05453053 -0.052523926 -0.12715042 0.18245536 -0.001980111 -0.14447932 -0.12472876
0.1135838 0.08830765 0.117786825 -0.019247606 -0.03607288 0.059819832 -0.001787588 -0.058776833
0.043539464 -0.10405147 -0.12641288 -0.040358096 -0.1301493 0.004635513 0.028732866 0.17877007
0.052617684 -0.0010684878 -0.13269095 -0.07338532 -0.029763773 -0.13146205 0.0355397 0.13140187
0.1044645 -0.07571905 -0.04463178 0.18201253 -0.029232651 -0.16397253 -0.0016031116 0.009282559
-0.06782685 -0.01981835 -0.14887953 0.05622314 -0.12670675 0.06283803 0.13756531 -0.11786865
-0.071484536 0.017559841 0.0004403442 0.10704616 -0.010945737 0.029515505 -0.050466835 0.06021814
0.05516164 -0.14700067 0.096921325 -0.037415594 0.16348803 -0.18118131 -0.018124267 0.082496315

middle_layer.bias f4 [10]
00000000: a860 eb3c a08a 2fbe 0829 f03c 8c8c 223e
00000010: c276 223e 401f 3fbb a28f 873d b039 f8bc
00000020: b8e8 51bd 4022 663b
0.028732613 -0.17142725 0.02931644 0.15873927 0.15865615 -0.0029162914 0.06619193 -0.030300945
-0.05124733 0.003511563

output_layer.weight f4 [1, 10]
00000000: ac9f 3cbe 1e60 023e b8c0 1e3e b890 afbd
00000010: 7e5a 93bd 50a6 61be e09d 253d acc9 003e
00000020: 47b7 993e b98d 98be
-0.18420285 0.12731978 0.15503204 -0.08572525 -0.071949944 -0.220361 0.040433764 0.12576932
0.30022642 -0.29795626
